example/models/100r100r2_MPC/model.pt (torch, 45255 bytes, 6 tensors)

seq.0.weight f4 [100, 4]
-0.76051885 -0.1713418 0.0028104691 0.0042443983 0.042934943 -0.015242013 0.0836261 0.008343693
-0.14197342 0.13958818 0.287278 0.37117484 -0.3612956 0.24115558 0.06903161 -0.039990984
-0.6573496 -0.77624446 0.00802559 -0.0028528245 0.11219359 -0.22102252 -0.035914116 -0.19005017
-0.36134213 0.25783578 -0.02215293 0.22553553 -0.038808867 -0.14410461 -0.28174213 -0.33193448
0.00056485995 0.0017194123 0.45704398 0.5852463 0.043779377 0.154138 -0.0011776596 -0.00022861123
0.051505104 0.04231806 0.018851524 0.058337886 0.43744865 0.039455492 -2.6167549e-05 -0.0027003249
-0.16091031 0.08914375 -0.021741848 -0.061384212 0.00051481434 -2.854089e-05 -0.26668346 -0.34248224
-0.097554296 0.38930118 -0.002141057 -0.0002002042 -0.20377354 0.9007788 0.005160143 0.0027088947
0.04824316 -0.02018161 -0.37137097 -0.48335877 -0.023968516 0.13482453 0.4209322 0.52104604
-0.19851388 -0.0026517333 -0.24011385 -0.30216336 -0.19094217 -0.022522504 -0.0011990347 -0.00030756686
-0.1864889 -0.14025609 0.10003728 0.13829915 1.2776389 -0.014283383 -0.00016732316 -0.006004669
-0.28671998 -0.1200499 -0.03987062 0.0016051999 0.79687583 -0.52420247 -0.009480211 -0.0044350154
-0.10881122 -0.16335563 0.10763657 -0.025042916 -1.1653965 -0.9116799 0.009673856 9.219568e-05
-0.15333293 0.08080587 0.3048914 0.3726448 0.0059345216 0.006681561 -0.30912727 -0.3878579
0.5173962 -0.7757947 -0.00017738536 0.00087409664 0.6714701 0.79348457 -0.0054019485 0.0023777161
-0.35323766 -0.1582545 -0.0023472614 5.52894e-06 0.68474185 1.2926397 -0.00064996514 0.006471593
0.27283794 0.54507333 0.00091298687 -0.0019733552 0.030579459 -0.035512157 -0.16168924 -0.1984471
-0.15624973 -0.09890559 0.31613323 0.35607147 0.10605802 0.30521005 0.20390724 0.079326786
0.29529577 -0.063724585 -0.08872777 0.06133473 -0.08509267 -0.07510548 0.23584901 0.17749381
-1.6291641 0.032217108 0.0032525428 0.0067983535 0.35298797 0.007707074 0.16500677 0.047239367
-0.94326484 -0.8535107 -0.00084271346 0.0023195588 0.027476033 0.018574422 -0.092663065 -0.1263747
0.026955996 0.058412243 0.30673254 0.35380957 -1.3548257 -0.3756918 -0.0010561708 -0.0024166198
0.20565657 0.47418028 0.0035451984 -0.0017461515 1.2032025 0.9974299 -0.0019421306 -0.0069031925
0.70529145 0.31246313 -0.0016275846 -0.006921513 -0.42649782 1.1091919 0.00834084 -0.006842661
-1.2484735 -1.3918352 0.0035358716 -0.00088961306 0.36998612 0.83250153 -0.0014642333 -0.0005786558
-0.46568978 -0.75643146 -3.3484343e-05 -0.0016044262 -0.14124706 0.4388795 5.2410982e-05 -0.0014808921
-0.11976717 0.13016029 -0.19856727 -0.215359 -0.047461003 0.23029298 -0.005079064 0.00014891385
-0.026635645 -0.5499589 -0.0016705547 -0.0008463181 0.06462943 -0.20553322 0.31852996 0.3954268
-0.40861735 0.21329416 -0.024301564 0.04885366 -1.1559207 -2.189411 -0.006585086 -0.005854428
1.0881653 -0.011651886 -0.0033185694 -0.004538978 -0.4819881 0.20380986 0.0059917094 -0.000106437175
-1.405468 0.035522297 -0.008785203 -0.009109791 -0.20601131 0.041636154 0.00595191 -0.28890538
-0.35647008 0.13184981 -0.00018989135 -0.0023625134 -0.00046261997 0.0016959455 -0.33897665 -0.43291575
00000000: 5db1 42bf 3a74 2fbe d92f 383b 9814 8b3b
00000010: 8ddc 2f3d a3b9 79bc 2944 ab3d fcb3 083c
00000020: 7b61 11be 34f0 0e3e 1a16 933e a10a be3e
00000030: bdfb b8be 7df1 763e 7260 8d3d 96cd 23bd
00000040: 1048 28bf f5b7 46bf c47d 033c 74f6 3abb
00000050: c1c5 e53d ba53 62be ae1a 13bd 839c 42be
00000060: d601 b9be 0d03 843e 107a b5bc c9f2 663e
00000070: 0cf6 1ebd 2990 13be 8140 90be 51f3 a9be
00000080: 1c13 143a e75d e13a ab01 ea3e b4d2 153f
00000090: 0152 333d 5ad6 1d3e b35b 9aba 5cb7 6fb9
000000a0: 04f7 523d b455 2d3d 836e 9a3c b5f3 6e3d
000000b0: 45f9 df3e 159c 213d 6282 dbb7 eff7 30bb
000000c0: acc5 24be 0091 b63d f61b b2bc 036e 7bbd
000000d0: 9bf4 063a 186b efb7 bc8a 88be d559 afbe
000000e0: 8cca c7bd 7c52 c73e fa50 0cbb e8ed 51b9
000000f0: 03aa 50be 7099 663f 6b16 a93b b687 313b
00000100: 9f9a 453d e753 a5bc 5624 bebe cd7a f7be
00000110: 9f59 c4bc 710f 0a3e 6d84 d73e 4663 053f
00000120: 3947 4bbe b4c8 2dbb 68e0 75be 28b5 9abe
00000130: 5886 43be 1d81 b8bc ee28 9dba ed40 a1b9
00000140: f2f6 3ebe 4b9f 0fbe 58e0 cc3d 4b9e 0d3e
00000150: ac89 a33f da04 6abc 7873 2fb9 d0c2 c4bb
00000160: f6cc 92be b9dc f5bd 604f 23bd 9265 d23a
00000170: 0e00 4c3f 2232 06bf e352 1bbc 9b53 91bb
00000180: 6bd8 debd b346 27be 9070 dc3d cd26 cdbc
00000190: b62b 95bf db63 69bf 187f 1e3c 2e59 c138
000001a0: 4f03 1dbe 8c7d a53d ba1a 9c3e 4dcb be3e
000001b0: 6076 c23b fff0 da3b ee45 9ebe 5095 c6be
000001c0: 1474 043f 7b9a 46bf 8500 3ab9 a223 653a
000001d0: 77e5 2b3f ce21 4b3f d402 b1bb 75d3 1b3b
000001e0: 91db b4be 780d 22be 83d4 19bb 3c85 b936
000001f0: 3e4b 2f3f 3875 a53f 6c62 2aba a80f d43b
00000200: 6ab1 8b3e ed89 0b3f 8355 6f3a 6853 01bb
00000210: c681 fa3c 3275 11bd dd91 25be b735 4bbe
00000220: eeff 1fbe 048f cabd 37dc a13e 004f b63e
00000230: f234 d93d 7e44 9c3e 0fcd 503e 1576 a23d
00000240: 0231 973e 0982 82bd e8b6 b5bd 203a 7b3d
00000250: 1145 aebd e7d0 99bd 6782 713e f0c0 353e
00000260: 7388 d0bf 16f6 033d 9d28 553b b9c4 de3b
00000270: d7ba b43e 9f8b fc3b 89f7 283e 117e 413d
00000280: ce79 71bf ad7f 5abf 8be9 5cba bd03 183b
00000290: 6b15 e13c 6329 983c 22c6 bdbd 5f68 01be
000002a0: d2d2 dc3c ad41 6f3d 0c0c 9d3e 8726 b53e
000002b0: ee6a adbf ad5a c0be 366f 8aba 2760 1ebb
000002c0: a397 523e c2c7 f23e 8f56 683b 1fdf e4ba
000002d0: 8a02 9a3f 9157 7f3f 178f feba 2d34 e2bb
000002e0: fb8d 343f 2bfb 9f3e ad54 d5ba dccd e2bb
000002f0: ec5d dabe 00fa 8d3f 05a8 083c 6738 e0bb
00000300: fbcd 9fbf a827 b2bf 15ba 673b ec34 69ba
00000310: d26e bd3e d21e 553f 84eb bfba efb0 17ba
00000320: e46e eebe 7ea5 41bf 8a71 0cb8 9c4b d2ba
00000330: 12a3 10be d0b4 e03e ddd3 5b38 7e1a c2ba
00000340: 7d48 f5bd bd48 053e 3855 4bbe 1287 5cbe
00000350: 7866 42bd ecd1 6b3e 476e a6bb c225 1c39
00000360: ff32 dabc 1bca 0cbf 84f6 daba 72db 5dba
00000370: 6f5c 843d 4d77 52be 5c16 a33e 6275 ca3e
00000380: 4b36 d1be c969 5a3e 1314 c7bc c61a 483d
00000390: 36f5 93bf 4f1f 0cc0 b5c7 d7bb 80d6 bfbb
000003a0: 0049 8b3f 8de7 3ebc 5b7c 59bb b5bb 94bb
000003b0: 25c7 f6be 88b3 503e 1a56 c43b 0637 dfb8
000003c0: 60e6 b3bf d47f 113d d0ef 0fbc 3c41 15bc
000003d0: a1f4 52be ac8a 2a3d 3d08 c33b 68eb 93be
000003e0: 3f83 b6be a303 073e 921d 47b9 66d4 1abb
000003f0: cd8b f2b9 7d4a de3a 598e adbe 22a7 ddbe

seq.0.bias f4 [100]
1.0772337 0.8184418 -1.5732056 0.08842337 0.0029671863 0.33421475 -0.09963792 0.79639
2.2687492 1.1827312 2.1638646 -0.47264934 0.6920921 1.3373069 -0.83427495 -2.058345
-1.9243472 -1.0516793 -0.8342111 1.3626618 0.086662 -2.7328653 -0.64420533 -1.5141131
0.18787749 -0.1561398 -0.60412544 -1.4882511 0.2333202 -0.006493865 -1.2226226 -2.144532
1.0464777 0.13228193 -0.7074873 -0.69377303 -0.20170537 -0.25317532 -2.8689473 -0.57216704
-2.3705583 -0.07627368 0.31128988 0.008485031 1.0650401 -2.1830897 -3.5973363 -0.055860687
-1.7427746 -1.773671 0.8805197 2.3184342 -0.5610601 1.3910947 -1.9107314 -0.5710563
0.16911444 -3.455256 -1.838832 0.26287484 -2.3570995 -0.7319924 1.4981858 1.6933453
-1.6876421 -1.848621 0.579029 0.70457596 0.22294438 -0.30694672 -0.43779927 0.42816365
2.4220254 -4.149726 0.17490785 2.0197015 -1.175632 -0.60978085 -1.7510875 -1.2698778
-0.10339966 0.058622204 -2.0650551 -2.4335685 -0.6737451 -0.7559475 -0.9354702 -2.3811789
2.1190016 0.63625264 5.496556 0.43540263 1.2956299 -0.5660648 0.070350945 -2.7259905
2.1441576 -0.74109423 -3.1646063 0.7180653
00000000: cbe2 893f 6785 513f cd5e c9bf 5017 b53d
00000010: 2075 423b 321e ab3e f70e ccbd 37e0 4b3f
00000020: 3033 1140 bc63 973f c27c 0a40 18ff f1be
00000030: f32c 313f df2c ab3f 0b93 55bf edbb 03c0
00000040: 0251 f6bf 6d9d 86bf dc8e 55bf b46b ae3f
00000050: d97b b13d 44e7 2ec0 a4ea 24bf 75ce c1bf
00000060: f562 403e 1de3 1fbe f7a7 1abf 037f bebf
00000070: 7eeb 6e3e 7dca d4bb e67e 9cbf 0340 09c0
00000080: fbf2 853f ea74 073e e31d 35bf 1c9b 31bf
00000090: da8b 4ebe 32a0 81be d59c 37c0 8a79 12bf
000000a0: 3ab7 17c0 6035 9cbd 6361 9f3e cd04 0b3c
000000b0: 3c53 883f beb7 0bc0 c23a 66c0 2dce 64bd
000000c0: 3d13 dfbf a707 e3bf bd69 613f 3a61 1440
000000d0: a2a1 0fbf 640f b23f d992 f4bf bf30 12bf
000000e0: 562c 2d3e ea22 5dc0 d95e ebbf 8897 863e
000000f0: b8da 16c0 db63 3bbf 8dc4 bf3f 8abf d83f
00000100: a804 d8bf 9d9f ecbf 3f3b 143f 175f 343f
00000110: 884b 643e 1f28 9dbe 3a27 e0be 4438 db3e
00000120: 7702 1b40 8eca 84c0 0b1b 333e ca42 0140
00000130: 1c7b 96bf 991a 1cbf a323 e0bf 5b8b a2bf
00000140: 33c3 d3bd d61d 703d dd29 04c0 96bf 1bc0
00000150: 8f7a 2cbf c685 41bf fa7a 6fbf 3c65 18c0
00000160: b99d 0740 74e1 223f c9e3 af40 18ed de3e
00000170: 33d7 a53f 9fe9 10bf 2814 903d a176 2ec0
00000180: e139 0940 5ab8 3dbf e988 4ac0 21d3 373f

seq.2.weight f4 [100, 100]
-0.10517542 0.09568784 0.13094988 -0.19612047 0.013302165 0.013789377 -0.121584564 -0.11982168
-0.18936025 0.04290575 -0.05655357 -0.020863058 -0.07273922 0.12658802 -0.1077404 0.09492537
0.032743327 -0.5070626 -0.010915146 -0.16444257 -0.13106225 -0.013206698 -0.003460122 0.047740735
-0.00027817496 0.007625745 -0.25286856 -0.06925304 -0.038287506 0.18883874 -0.10239376 0.038373318
0.22944425 0.08357063 -0.2705073 -0.057548318 -0.14547247 -0.028084747 0.072472624 -0.11110542
0.032168653 -0.09921692 0.026498107 0.16975458 0.046700194 -0.10993591 0.012988283 0.087745614
0.02507377 0.04478573 0.0892496 0.012797757 0.0036786383 0.04959007 -0.018708415 -0.28246918
-0.09936512 0.06473314 -0.07567943 -0.14832221 0.09786241 0.048772383 -0.099998534 0.12022743
0.0671236 -0.0024919193 -0.1805955 0.07680925 -0.08549188 -0.05190375 -0.0007720419 -0.19583856
0.036092527 0.10891361 -0.1486379 -0.056889057 -0.1883834 -0.06746151 -0.085230015 -0.42344928
-0.024030017 -0.043770436 0.16978513 0.080356315 0.04410376 -0.5350678 -0.11666543 0.09221439
0.2708208 0.013794455 0.16872805 -0.20242225 -0.047071338 -0.13386685 -0.02571393 -0.25265005
0.16399124 -0.2048882 0.045884322 -0.15751155 0.11550418 0.13780731 -0.23340401 0.01777571
0.020624012 0.08700909 -0.044821713 0.19573824 0.25641406 0.049912877 0.3325578 -0.07005414
0.045913752 0.08688326 -0.16842547 -0.2289357 -0.06810384 -0.020716937 -0.009258729 0.14516354
0.09635169 -0.17881732 -0.048996657 -0.13664988 -0.030309135 -0.08446911 -0.019578664 -0.12862909
0.009658873 0.08328016 -0.1920704 -0.25772706 0.023590561 -0.0076260082 -0.16694662 -0.09761783
-0.08756601 -0.035687465 -0.14360704 -0.09482589 -0.16028515 0.115014754 0.10528749 -0.06659594
0.07703353 -0.33464313 -0.21658057 -0.08336529 -0.28071147 -0.15956378 -0.06456028 0.3507562
-0.0916449 0.13559555 -0.124211825 -0.033845764 0.03380813 -0.17999585 -0.18330726 -0.01563757
-0.20102175 -0.012761075 0.16195366 0.056640644 -0.19566587 -0.29723895 0.09029088 -0.08763072
0.07781317 -0.042518128 -0.050134044 0.11512802 0.10511111 -0.67944807 -0.004593779 0.087598346
-0.31972015 -0.011531356 -0.04300726 -0.12504363 0.094126716 0.000490964 -0.036770266 -8.6282394e-05
-0.2583888 -0.012989125 0.30005783 -0.23808938 0.18532012 0.03151252 0.6480877 0.10812201
0.08885289 -0.12480928 -0.026278332 -0.7224182 0.26123255 -0.10653492 -0.13037348 0.03276114
0.12247448 0.023816343 0.10754831 -0.03652447 -0.20409933 0.024054661 -0.07908462 -0.039704695
-0.23307665 -0.18138677 -0.2513255 0.62901616 -0.16990885 -0.15362766 0.25059065 0.6221681
0.19359505 0.08566864 0.039323866 -0.0065032444 -0.0395951 0.09516944 -0.035784684 0.95445335
0.21351187 0.32113847 0.114129074 0.21482804 1.0324727 -0.3610933 0.12663947 -0.18627582
-0.5475708 -0.107737355 0.09705312 0.0013641478 0.25719318 -0.022585392 0.21802492 0.30005935
0.44137824 -0.041259885 -0.14025365 0.09332921 -0.5599331 -0.07360696 0.47651407 -0.5141342
0.7685607 -0.07040254 -0.24833809 0.046503644 0.026435994 -0.10705203 0.22183347 0.2525901
00000000: 3666 d7bd fcf7 c33d ba17 063e ced3 48be
00000010: 53f1 593c d7ec 613c 5401 f9bd 1265 f5bd
00000020: a7e7 41be f1bd 2f3d b7a4 67bd 01e9 aabc
00000030: 4df8 94bd 4aa0 013e 00a7 dcbd 3b68 c23d
00000040: de1d 063d dbce 01bf 71d5 32bc a263 28be
00000050: 2f35 06be e860 58bc 37c3 62bb ca8b 433d
00000060: 03d8 91b9 63e1 f93b fd77 81be 8ad4 8dbd
00000070: 5cd3 1cbd f15e 413e d2b3 d1bd 572d 1d3d
00000080: 6ff3 6a3e 1427 ab3d ef7f 8abe c9b7 6bbd
00000090: bcf6 14be fc11 e6bc 876c 943d 3d8b e3bd
000000a0: 47c3 033d 3e32 cbbd 8f12 d93c 25d4 2d3e
000000b0: b448 3f3d 1426 e1bd cfcc 543c f9b3 b33d
000000c0: 8267 cd3c 3e71 373d 7fc8 b63d afad 513c
000000d0: 4f15 713b f51e 4b3d 6442 99bc cd9f 90be
000000e0: f17f cbbd cf92 843d d1fd 9abd c7e1 17be
000000f0: 166c c83d 8dc5 473d 08cc ccbd cc39 f63d
00000100: 1978 893d 784f 23bb 07ee 38be 2b4e 9d3d
00000110: 5e16 afbd 0799 54bd db62 4aba e789 48be
00000120: c2d5 133d 190e df3d 8934 18be 8004 69bd
00000130: 94e7 40be 4329 8abd 138d aebd 58ce d8be
00000140: 99da c4bc a148 33bd 27dc 2d3e da91 a43d
00000150: 25a6 343d 34fa 08bf 49ee eebd e6da bc3d
00000160: 06a9 8a3e 2302 623c 0cc7 2c3e c747 4fbe
00000170: e0cd 40bd 6414 09be 05a6 d2bc 595b 81be
00000180: 52ed 273e 36ce 51be 33f1 3b3d b54a 21be
00000190: 758d ec3d 5c1d 0d3e 7601 6fbe 5e9e 913c
000001a0: b0f3 a83c d231 b23d f996 37bd 9b6f 483e
000001b0: b448 833e 7271 4c3d 0445 aa3e 8c78 8fbd
000001c0: 0f10 3c3d daef b13d ba77 2cbe 1f6e 6abe
000001d0: 077a 8bbd 91b6 a9bc edb1 17bc c0a5 143e
000001e0: 0954 c53d e31b 37be b8b0 48bd f2ed 0bbe
000001f0: dd4a f8bc 24fe acbd 6f63 a0bc 58b7 03be
00000200: 4040 1e3c ca8e aa3d 1aae 44be cdf4 83be
00000210: fe40 c13c 98e3 f9bb 0ef4 2abe dbeb c7bd
00000220: cf55 b3bd 052d 12bd b90d 13be 1434 c2bd
00000230: ca21 24be db8c eb3d f8a0 d73d 7463 88bd
00000240: c1c3 9d3d 5856 abbe 4cc7 5dbe 6cbb aabd
00000250: 6ab9 8fbe b064 23be 2e38 84bd 5196 b33e
00000260: 52b0 bbbd 8fd9 0a3e c562 febd dba1 0abd
00000270: 657a 0a3d d550 38be e6b4 3bbe 5c1a 80bc
00000280: a5d8 4dbe d413 51bc 2ed7 253e 0500 683d
00000290: a25c 48be b42f 98be 6dea b83d bc77 b3bd
000002a0: 835c 9f3d 7d27 2ebd 5b59 4dbd 3dc8 eb3d
000002b0: 7e44 d73d 4ff0 2dbf 6987 96bb c366 b33d
000002c0: 5cb2 a3be 03ee 3cbc 6128 30bd 700b 00be
000002d0: 82c5 c03d 09b4 003a 6b9c 16bd 82f2 b4b8
000002e0: 894b 84be 57d0 54bc 2ea1 993e b4cd 73be
000002f0: 8fc4 3d3e 4613 013d 13e9 253f 136f dd3d
00000300: 81f8 b53d 029c ffbd a845 d7bc 66f0 38bf
00000310: 46c0 853e fb2e dabd a080 05be 8c30 063d
00000320: e6d3 fa3d 7e1a c33c 4a42 dc3d af9a 15bd
00000330: 6aff 50be 480e c53c 1ef7 a1bd 64a1 22bd
00000340: a5ab 6ebe 74bd 39be bcad 80be 3407 213f
00000350: 96fc 2dbe 9250 1dbe 6b4d 803e 6946 1f3f
00000360: c83d 463e 0a73 af3d 1012 213d 2b19 d5bb
00000370: 792e 22bd 32e8 c23d f692 12bd 0e57 743f
00000380: dba2 5a3e 436c a43e 81bc e93d e2fb 5b3e
00000390: 1128 843f 39e1 b8be c7ad 013e 17bf 3ebe
000003a0: 9a2d 0cbf 67a5 dcbd c9c3 c63d 34cd b23a
000003b0: d3ae 833e 0005 b9bc ed41 5f3e 61a1 993e
000003c0: 54fc e13e 2000 29bd a79e 0fbe 6323 bf3d
000003d0: c757 0fbf 3fbf 96bd a7f9 f33e 4d9e 03bf
000003e0: 65c0 443f 352f 90bd 574c 7ebe 9b7a 3e3d
000003f0: 4c90 d83c 183e dbbd 5028 633e 7d53 813e

seq.2.bias f4 [100]
0.25710684 0.22020435 -0.39153707 0.16153838 0.17018989 0.023923771 0.08091805 0.2587337
-0.0019382683 0.054529607 0.28090674 0.24731655 -0.22914247 -0.23174743 0.06630996 -0.02450825
-0.0007319806 0.16610503 0.04008844 0.29632795 -0.42593873 0.11749952 -1.619311 0.054093815
-0.011216694 0.052977834 0.17263748 0.1254988 0.2040052 0.23332964 0.27401486 0.5359475
-0.044458475 -0.4532404 -0.3654756 -0.015512419 0.081144415 0.15232283 -0.50869876 -0.28999496
0.14174245 0.3093687 0.27984592 -0.067074396 -0.7837086 0.29166517 0.07421986 -0.23116809
-1.0498998 0.95830446 0.031514093 -0.20396878 0.49963254 0.06914636 0.13656148 0.29418078
-0.009128442 0.05267126 0.26460528 0.06706365 0.31403473 -0.79099476 -0.9667758 -0.0264017
-0.42734817 -0.16074532 -0.3573644 -0.5849309 0.0734629 0.14615135 0.04740696 0.10800077
0.225057 0.24387361 -0.40228817 0.13708091 0.052268233 0.13594237 0.07821936 -0.02090018
-0.15792869 -0.15883619 0.13829811 -0.06664452 -1.146574 1.53837 0.08378348 0.026000941
0.04862395 -0.79816896 0.04026974 -0.4595373 -0.034687784 0.21989255 0.39707452 -0.16299509
0.15494896 0.6440252 0.20163015 0.33030236
00000000: 82a3 833e 407d 613e 8c77 c8be 516a 253e
00000010: 4246 2e3e c9fb c33c 5db8 a53d be78 843e
00000020: 7e0d feba 705a 5f3d 02d3 8f3e 8d40 7d3e
00000030: 53a4 6abe 334f 6dbe 84cd 873d 87c5 c8bc
00000040: 63e2 3fba 7017 2a3e c733 243d 4cb8 973e
00000050: a414 dabe 97a3 f03d 9545 cfbf 7a91 5d3d
00000060: 39c6 37bc 49ff 583d e1c7 303e c282 003e
00000070: bde6 503e f7ed 6e3e ad4b 8c3e db33 093f
00000080: 171a 36bd 200f e8be 9e1f bbbe cd27 7ebc
00000090: 0b2f a63d 84fa 1b3e 153a 02bf 387a 94be
000000a0: ef24 113e 9365 9e3e f747 8f3e 4d5e 89bd
000000b0: 20a1 48bf 2355 953e 9500 983d 54b7 6cbe
000000c0: 1e63 86bf 7153 753f ec14 013d 31dd 50be
000000d0: d6cf ff3e 9b9c 8d3d c6d6 0b3e dd9e 963e
000000e0: 768f 15bc d2bd 573d 587a 873e ab58 893d
000000f0: 29c9 a03e a27e 4abf 9e7e 77bf 6148 d8bc
00000100: 61cd dabe 6c9a 24be 77f8 b6be 08be 15bf
00000110: b873 963d b3a8 153e cd2d 423d 822f dd3d
00000120: 5875 663e 01ba 793e b7f8 cdbe f05e 0c3e
00000130: 3717 563d 7a34 0b3e 7931 a03d db36 abbc
00000140: 0fb8 21be f4a5 22be 059e 0d3e ec7c 88bd
00000150: f0c2 92bf 4fe9 c43f ac96 ab3d edff d43c
00000160: e829 473d cd54 4cbf e2f1 243d 7948 ebbe
00000170: c714 0ebd 832b 613e 5a4d cb3e 2fe8 26be
00000180: f1aa 1e3e d6de 243f 2278 4e3e 641d a93e

seq.4.weight f4 [2, 100]
0.036927525 1.0384723 1.5320482 -0.26866132 0.032735996 0.08502066 -0.002776683 0.0020398244
0.93508136 -0.037343368 0.0020146917 0.299985 -0.8586696 1.4556637 0.07616971 0.0064332904
-0.011148376 0.01706514 0.4009293 -0.01357323 0.9459478 0.26188245 1.9769282 -0.29403672
-0.1965263 0.100364625 0.10504408 -0.87073475 0.1800234 -0.479188 1.3602409 -1.095689
-0.9161241 -1.3519351 -0.9305093 -0.052498914 0.0496766 0.024298802 0.52484363 0.72731394
0.05592085 0.07065949 0.84601134 -0.67303467 0.9489893 0.118132845 -0.06455729 0.30890948
-1.4851547 -1.896441 -0.34308243 0.6527097 -0.014775395 -0.83055824 1.7068064 0.8403485
-0.62332356 0.47605625 0.5705319 0.8675309 0.12095447 -0.67638046 -1.4067115 -0.20119944
2.1639087 0.9104515 -0.28351486 -1.3935227 0.118435204 -0.010834873 -0.08930511 -0.07289035
-0.0149684 0.017516416 -2.1033173 0.2095516 -1.4765075 0.057735633 0.2247065 1.6661524
-0.98417574 1.258229 -0.3042354 0.25419417 -1.0230175 2.1083484 0.26503864 -0.58202136
0.3086483 1.3824543 0.17263523 -0.64780587 0.1466591 0.14055318 0.004820135 1.3656807
0.22523986 -1.6870795 -0.19455783 -1.5076115 1.1005576 -0.010754136 0.023100186 0.2003819
0.7674835 -0.49009457 -0.7946594 0.5388449 -0.0459235 -0.37893584 -0.76035607 0.14653629
0.032496396 -0.06838788 0.72269464 -0.062933125 -0.64618325 0.43521023 0.19571702 -0.77435195
0.0038215423 0.10270134 -0.06520111 0.025711363 0.059379496 0.29982287 0.8194813 -0.016218904
-0.53264445 0.12968723 -0.12832536 0.09520107 -0.043407958 0.0649606 -0.1310946 0.07468762
0.36732912 0.7373386 0.034860186 -0.011948386 0.44048822 0.9478856 0.27977136 -0.0781591
0.03899882 -0.33285025 -0.663207 0.05175874 -0.018562062 0.00022126487 -0.31848305 -0.21895619
-1.2762512 -0.019939238 0.65543294 0.46186262 0.1253836 0.15148394 -0.28633228 -0.0037728213
0.95725095 0.055708457 0.013858912 -0.29888403 0.024601959 0.042612296 0.15643275 -0.016792558
-0.37044394 0.44885376 0.0346534 -0.3561999 0.73156244 -0.71178955 -0.025285335 -0.037439242
0.04480574 0.48225585 0.09388431 0.022202 0.013668687 0.87024534 -0.26052988 -0.010675365
0.038810786 0.03921177 -0.07284344 -0.21981128 -0.012434635 -0.03527206 0.2888016 -0.07244661
-0.06988203 -0.43108514 -0.8168414 0.006130972 0.31023857 -0.0652221 0.27999184 -0.054663714
00000000: 5141 173d a9ec 843f 281a c43f fa8d 89be
00000010: 2e16 063d 501f ae3d 03f9 35bb 93ae 053b
00000020: 7e61 6f3f 5cf5 18bd eb08 043b a297 993e
00000030: c5d1 5bbf 3053 ba3f ddfe 9b3d 5ace d23b
00000040: aea7 36bc 31cc 8b3c 9b46 cd3e 4162 5ebc
00000050: a329 723f 7515 863e fc0b fd3f fb8b 96be
00000060: 313e 49be f88b cd3d 5a21 d73d 79e8 5ebf
00000070: 0e58 383e 2158 f5be 601c ae3f 8a3f 8cbf
00000080: 1c87 6abf 360c adbf dc35 6ebf 1a09 57bd
00000090: b179 4b3d 480e c73c 275c 063f 3f31 3a3f
000000a0: 430d 653d ecb5 903d 3394 583f 004c 2cbf
000000b0: f6f0 723f a2ef f13d 9d36 84bd 6229 9e3e
000000c0: 8d19 bebf 94be f2bf 80a8 afbe fc17 273f
000000d0: 8014 72bc 779f 54bf a278 da3f 1421 573f
000000e0: 2292 1fbf a5bd f33e 610e 123f 8116 5e3f
000000f0: fab6 f73d 4527 2dbf 1f0f b4bf 3a07 4ebe
00000100: 7b7d 0a40 5913 693f dc28 91be f45e b2bf
00000110: 288e f23d c084 31bc 99e5 b6bd 8947 95bd
00000120: 053e 75bc 967e 8f3c c09c 06c0 b294 563e
00000130: 33fe bcbf 337c 6c3d 7619 663e 7b44 d53f
00000140: f1f2 7bbf a60d a13f bec4 9bbe bd25 823e
00000150: 3df2 82bf 2eef 0640 25b3 873e 5aff 14bf
00000160: 2607 9e3e 43f4 b03f 4ac7 303e 9bd6 25bf
00000170: ce2d 163e 2ced 0f3e 39f2 9d3b a0ce ae3f
00000180: 47a5 663e 39f2 d7bf 2b3a 47be 6af9 c0bf
00000190: 12df 8c3f 1e32 30bc 9a3c bd3c ea30 4d3e
000001a0: cc79 443f aded fabe cc6e 4bbf bdf1 093f
000001b0: 481a 3cbd e103 c2be b2a6 42bf 9c0d 163e
000001c0: f11a 053d f20e 8cbd 8402 393f 15e3 80bd
000001d0: 446c 25bf e0d3 de3e 0b6a 483e ee3b 46bf
000001e0: d772 7a3b 1555 d23d 2988 85bd a3a0 d23c
000001f0: ea37 733d 6282 993e 87c9 513f 82dd 84bc
00000200: 635b 08bf bbcc 043e b967 03be c7f8 c23d
00000210: 8bcc 31bd 100a 853d aa3d 06be d3f5 983d
00000220: 9012 bc3e 39c2 3c3f 8ec9 0e3d 2ac3 43bc
00000230: ac87 e13e a1a8 723f 313e 8f3e e111 a0bd
00000240: 3abd 1f3d 596b aabe efc7 29bf f900 543d
00000250: 770f 98bc 5603 6839 3610 a3be 0d36 60be
00000260: 335c a3bf 9d57 a3bc 74ca 273f 4279 ec3e
00000270: 8f64 003e 9b1e 1b3e 259a 92be 7041 77bb
00000280: 660e 753f 8d2e 643d 7d10 633c 5407 99be
00000290: 0c8a c93c 3b8a 2e3d e82f 203e 8c90 89bc
000002a0: d4aa bdbe 29d0 e53e b9f0 0d3d d55f b6be
000002b0: ad47 3b3f d737 36bf 3123 cfbc e459 19bd
000002c0: 3986 373d 3dea f63e 6b46 c03d f8e0 b53c
000002d0: a1f2 5f3c 66c8 5e3f 2c64 85be bae7 2ebc
000002e0: 0ff8 1e3d 859c 203d f12e 95bd 3516 61be
000002f0: a4ba 4bbc 7079 10bd cedd 933e e35e 94bd
00000300: 4f1e 8fbd 31b7 dcbe 851c 51bf 52e6 c83b
00000310: 97d7 9e3e 2a93 85bd 175b 8f3e 0fe7 5fbd

seq.4.bias f4 [2]
0.3296087 0.24781907
00000000: 79c2 a83e 48c4 7d3e
