example/models/20r20r20r2/model.pt (torch, 6459 bytes, 8 tensors)

seq.0.weight f4 [20, 4]
0	0x3f452f8f	0.77025694
1	0x3e087c46	0.13328657
2	0xbc4c87c8	-0.012483545
3	0x3df85d18	0.12127131
4	0xbf0453a0	-0.516901
5	0xbd2ad7da	-0.04170976
6	0x3f026d33	0.50947875
7	0x3f14a269	0.5806032
8	0x3f90338a	1.1265728
9	0x3f5617ce	0.83630073
10	0x3c37f2bd	0.011227307
11	0xbb228fbb	-0.0024804908
12	0xbe5fcbe5	-0.21855123
13	0xbe341b71	-0.17588593
14	0xbe2adb6d	-0.16685267
15	0x3e0185fb	0.12648766
16	0x3ec2f4b1	0.3807731
17	0xbdb5fed3	-0.088864945
18	0x3e3c1ac8	0.18369591
19	0xbe69513e	-0.22784898
20	0x3f635c12	0.88812363
21	0xbf1791a7	-0.5920662
22	0xbcd4597e	-0.02592158
23	0xbcf05ee2	-0.029342119
24	0x3ec903b6	0.39260644
25	0x3d4a332c	0.049365208
26	0x3efac64d	0.48979416
27	0x3f24d438	0.6438632
28	0x3f1331c0	0.5749779
29	0x3ea51e35	0.3224961
30	0x39b40a27	0.0003433984
31	0x3a901e4b	0.0010995356
32	0x3f4770c3	0.77906436
33	0x3ee515c3	0.44743165
34	0xbc4bd7f7	-0.012441627
35	0xbc9fb448	-0.019495144
36	0xbcdc2b51	-0.026876124
37	0x3f83784e	1.0271089
38	0x3c3c317a	0.0114864055
39	0x3c69fe5d	0.014281836
40	0xbf240d67	-0.6408295
41	0xbf945a53	-1.1590065
42	0x3bdc14a4	0.0067163277
43	0x3b8541b9	0.0040666726
44	0x3ee93baf	0.45553347
45	0x3ddcd3d3	0.1078259
46	0xbf0e1894	-0.55506253
47	0xbf2c34ed	-0.6726826
48	0xbf1ab2c8	-0.6042905
49	0xbec9e49f	-0.39432237
50	0x3eeeabdb	0.4661549
51	0x3f0ec9f9	0.55776936
52	0x3e1dad2c	0.15398091
53	0x3f05f2e7	0.52323765
54	0xbe8f8145	-0.28028312
55	0xbdb002d2	-0.08594288
56	0xbf9a3154	-1.2046304
57	0x3e821864	0.25409234
58	0xbd5f7ca1	-0.054562215
59	0xbd4f79e7	-0.050653365
60	0xbe8eb0a4	-0.2786914
61	0x3e277c2a	0.16355959
62	0x3e59dd58	0.21275842
63	0xbe9f2dd4	-0.31089652
64	0x3e8143cd	0.2524704
65	0x3f03900a	0.5139166
66	0xbbad871f	-0.0052956487
67	0xbcaf1ecc	-0.02137699
68	0xbe725e0c	-0.23668689
69	0x3de5fc2e	0.1122974
70	0xbe8e91da	-0.2784565
71	0x3dc5eff8	0.09664911
72	0x3ba67c9b	0.005080772
73	0xbc4672b2	-0.012112306
74	0x3ea8a8fb	0.32941422
75	0x3ed1bc7f	0.40964124
76	0xbef800d0	-0.4843812
77	0xbe2aa9a7	-0.1666628
78	0xbed88710	-0.42290545
79	0xbf061246	-0.52371633

seq.0.bias f4 [20]
0	0xbf81a31a	-1.01279
1	0xbf081616	-0.531587
2	0x3d3e4328	0.046450764
3	0x3edecfb5	0.43517843
4	0xbe7d4714	-0.24734145
5	0xbe74af02	-0.23894885
6	0x3f071354	0.5276387
7	0xc0161145	-2.344804
8	0xc01775df	-2.3665693
9	0x40054b5f	2.0827253
10	0x3e738cb3	0.23784141
11	0x3e4529c2	0.1925421
12	0xbcceccac	-0.02524408
13	0xbe9f414c	-0.31104505
14	0xbfffcf8f	-1.9985217
15	0x3ef1b919	0.4721153
16	0xbf251c3f	-0.64496225
17	0x3e9c7964	0.30561364
18	0x3fd311fe	1.6489866
19	0x3ee6f8e3	0.4511176

seq.2.weight f4 [20, 20]
0	0x3e61e42f	0.22059701
1	0x3e954ea7	0.2916157
2	0x3de84053	0.11340394
3	0xbd07bbd1	-0.0331381
4	0x3e87d011	0.2652593
5	0xbd50081c	-0.050788984
6	0x3e07f8c9	0.13278498
7	0x3e83710c	0.25672185
8	0x3e6f8248	0.23389542
9	0x3dec5246	0.1153913
10	0x3ddbd60e	0.10734187
11	0xbd1dc813	-0.038520884
12	0x3ef8e070	0.48608732
13	0xbe2e238b	-0.17005746
14	0x3c79bc05	0.015242581
15	0x3e48949e	0.19587943
16	0xbe70da26	-0.23520717
17	0x3e81e431	0.2536941
18	0xbf1f5039	-0.62231785
19	0x3e20c8c7	0.1570159
20	0x3ddc04cd	0.10743103
21	0xbe248c77	-0.16069208
22	0x3f0cb494	0.5496304
23	0xbe17a140	-0.14807606
24	0xbd42acb1	-0.047527973
25	0xbe61e845	-0.2206126
26	0xbdaf8b64	-0.085715085
27	0xbc9accc0	-0.01889646
28	0xbd3595f7	-0.04433247
29	0xbe554f84	-0.20831114
30	0xbed4eb00	-0.4158554
31	0xbdadd204	-0.08487323
32	0x3e031c6f	0.12803815
33	0x3d54314d	0.05180483
34	0x3f3ceab2	0.73795617
35	0x3d6a7329	0.05723873
36	0xbdb070b8	-0.086152494
37	0x3d1f7545	0.038930196
38	0x3ddcd40f	0.107826345
39	0x3d671f23	0.05642618
40	0x3e13e39d	0.14442296
41	0x3e158f33	0.14605407
42	0xbddefdaf	-0.1088823
43	0x3ecde27c	0.40211856
44	0x3edc8040	0.43066597
45	0x3eaba053	0.33520755
46	0xbe9880ae	-0.29785675
47	0xbd0aaacc	-0.03385429
48	0xbea9e095	-0.33179155
49	0x3e2a2396	0.16615137
50	0xbdb6ed6b	-0.08932003
51	0x3da03fcf	0.078246705
52	0x3e72f553	0.23726396
53	0x3e1ba9b7	0.1520146
54	0xbea844cf	-0.32864997
55	0x3e99857f	0.29984662
56	0x3deaf2e5	0.1147211
57	0x3eafbd37	0.34324047
58	0x3e4b2bbc	0.19840902
59	0x3e9edd8f	0.3102841
60	0x3eabb56a	0.33536845
61	0xbd7bf288	-0.061510593
62	0x3c1f9814	0.009740848
63	0x3dd89321	0.105749376
64	0x3e52fe60	0.20604849
65	0x3d1260da	0.035736896
66	0xbe84378c	-0.2582363
67	0xbb82fd94	-0.003997514
68	0x3d20d3db	0.03926454
69	0x3da621e7	0.08111935
70	0x3d29d17a	0.041459538
71	0xbe9e8013	-0.30957088
72	0xbbd2fe8a	-0.006439035
73	0x3e881d8d	0.26585045
74	0xbd6f0f7e	-0.058364384
75	0x3e6d1ff0	0.23156714
76	0x3ca4ec78	0.020132288
77	0x3e6e9509	0.2329904
78	0xbf027f37	-0.50975364
79	0x3d7c21fa	0.06155584
80	0xbed6a599	-0.41923216
81	0xbef75743	-0.48308763
82	0x3e56b68d	0.20968075
83	0xbd65172e	-0.05593031
84	0xbe9d1576	-0.30680436
85	0xbf00111b	-0.500261
86	0x3ea16ecb	0.3152984
87	0x3ee4a990	0.44660616
88	0x3ec02b04	0.37532818
89	0x3f18828f	0.59574217
90	0xbeccffae	-0.40038818
91	0x3e604fb8	0.2190541
92	0xbecf199a	-0.4044922
93	0xbe7e6581	-0.24843408
94	0x3e53a54f	0.20668529
95	0x3d4a5525	0.049397606
96	0xbe2d481c	-0.16922039
97	0xbd323ac4	-0.043513075
98	0x3f25c1ad	0.6474865
99	0xbe6284f3	-0.22121029
100	0xbee174c7	-0.44034407
101	0xbe3c24b5	-0.18373378
102	0x3db33170	0.08749664
103	0xbe2bdfdb	-0.16784613
104	0xbe2ee89f	-0.17080925
105	0x3e2c48cb	0.16824643
106	0x3d9be6c4	0.076123744
107	0xbed93283	-0.4242135
108	0xbf903f92	-1.12694
109	0x3efd860b	0.4951633
110	0xbe6f9820	-0.23397875
111	0x3e04a839	0.12954797
112	0xbe18435b	-0.14869444
113	0x3d2eee0a	0.04270748
114	0x3dd021aa	0.10162671
115	0x3d928d6b	0.071558796
116	0xbe9d495d	-0.30720034
117	0x3e1e85e9	0.1548077
118	0x3ea26973	0.31721076
119	0xbcdb9880	-0.026806116
120	0x3da2e680	0.07954121
121	0xbe4b661f	-0.19863175
122	0x3e367710	0.17818856
123	0x3da46360	0.08026767
124	0xbd7286ae	-0.05921047
125	0xbb14a81c	-0.0022683209
126	0xbe2c0bcd	-0.16801377
127	0xbe3a02b0	-0.18165088
128	0xbe7eb846	-0.24874982
129	0x3e176de3	0.14788012
130	0x3de22f76	0.11044209
131	0x3dc6d710	0.09708989
132	0xbd98d048	-0.074616015
133	0xbd535f7a	-0.051604725
134	0xbe3ca095	-0.18420632
135	0x3e1cda94	0.15317756
136	0xbe8c24a8	-0.27371716
137	0x3e044b3e	0.12919328
138	0xbe3580ed	-0.17724963
139	0x3e961009	0.2930911
140	0x3e509aa5	0.20371492
141	0x3e949522	0.2902003
142	0x3f172cc6	0.59052694
143	0x3da2b079	0.07943816
144	0x3adc21d6	0.0016794752
145	0x3f7acb3b	0.97966355
146	0x3deef624	0.11668041
147	0x3942a210	0.00018561655
148	0xbe26322a	-0.16230074
149	0xbf028eed	-0.5099934
150	0xbecab566	-0.3959152
151	0xbea325c6	-0.31864756
152	0x3e72572e	0.23666069
153	0xbd127289	-0.03575376
154	0x3f502b82	0.8131639
155	0xbbe507e2	-0.006989465
156	0x3dfc2f71	0.12313736
157	0xbda8e250	-0.08246291
158	0x3d9b8466	0.075936124
159	0x3ed88235	0.4228684
160	0xbaa1796b	-0.001231951
161	0xbd0c186e	-0.034202985
162	0x3e425c11	0.18980433
163	0x3eb16c4c	0.34652936
164	0x3d8cc1a6	0.06872873
165	0x3dbc853d	0.09205101
166	0xbe9e120f	-0.30873153
167	0x3d804fc4	0.06265214
168	0xbef841c3	-0.48487672
169	0xbd454e79	-0.04817054
170	0xbe0567b8	-0.13027847
171	0x3eb35859	0.3502834
172	0x3dafff82	0.08593656
173	0xbcc78996	-0.024357598
174	0xbd2131d3	-0.039354157
175	0x3cdae8d5	0.026722351
176	0x3e44b275	0.19208701
177	0xbe5cf6b3	-0.21578483
178	0xbe14db48	-0.14536774
179	0xbc6a0083	-0.014282349
180	0xbda630ae	-0.08114754
181	0x3d12921d	0.035783876
182	0x3e746724	0.2386747
183	0xbce14686	-0.027499449
184	0xbda796b9	-0.08183045
185	0x3df928ab	0.1216596
186	0xbd3202e7	-0.0434598
187	0xbe2c701f	-0.16839646
188	0xbe7be0b1	-0.24597432
189	0x3d5f8898	0.054573625
190	0xbc988e80	-0.018622637
191	0x3e4320ee	0.1905553
192	0xbe54dc99	-0.20787276
193	0x3e17ac0b	0.14811723
194	0xbf61ea0b	-0.88247746
195	0x3da74159	0.08166761
196	0x3dd6a437	0.1048054
197	0x3d09a3a0	0.03360331
198	0x3e7c2cb3	0.24626426
199	0xbdfd8e88	-0.12380701
200	0x3d0e2890	0.034706652
201	0x3e6cb9d4	0.23117763
202	0xbf3ce6ae	-0.7378949
203	0xbd9224bf	-0.07135915
204	0x3c9caff8	0.019126877
205	0xbd0c2faf	-0.034225162
206	0xbe514a42	-0.20438483
207	0x3e182eb2	0.14861563
208	0x3f27b093	0.65503806
209	0x3ead5b72	0.3385883
210	0x3ee21ea3	0.44164
211	0x3ee1859e	0.44047254
212	0x3e95e33b	0.29274926
213	0x3e4d5fed	0.20056124
214	0x3ecfe5d3	0.4060503
215	0x3de21718	0.11039561
216	0x3ebfd7ac	0.37469232
217	0x3dc88e3c	0.09792754
218	0xbde8c1eb	-0.11365112
219	0x3ca1f5f4	0.0197706
220	0x3e468030	0.19384837
221	0x3d98e145	0.07464842
222	0x3f057700	0.52134705
223	0x3d565f99	0.052337263
224	0x3d7440de	0.059632175
225	0x3ea8bde4	0.32957375
226	0x3e6579c6	0.22409734
227	0xbef12ddc	-0.471053
228	0xbea2a79c	-0.317685
229	0xbf36f8f8	-0.71473646
230	0xbe2aef74	-0.16692907
231	0xbd1bdaba	-0.03805039
232	0x3ea8a8da	0.32941324
233	0x3d854a2d	0.065082885
234	0x3f4a8a2e	0.79117095
235	0xbce783bd	-0.02826106
236	0x3e9602e4	0.2929908
237	0xbdcbf64a	-0.09959085
238	0xbf14d1c7	-0.58132595
239	0xbccb8813	-0.024845159
240	0x3f163835	0.58679515
241	0x3d3dde06	0.046354316
242	0x3bcb39d3	0.0062019615
243	0xbc1f3a1a	-0.009718442
244	0x3da9f5c9	0.08298833
245	0x3ebe957f	0.3722343
246	0xbf087616	-0.53305185
247	0xbe88b716	-0.26702183
248	0xbdf271ad	-0.11838088
249	0x3d854c3b	0.065086804
250	0x3e0f5f29	0.14001144
251	0xbea41179	-0.3204458
252	0x3e01342b	0.12617557
253	0x3e81338c	0.2523464
254	0x3e925528	0.28580594
255	0x3eac781f	0.33685395

seq.2.bias f4 [20]
0	0xbe08b329	-0.13349594
1	0x3ee00923	0.4375697
2	0x3f301c10	0.6879282
3	0x3f80f8af	1.0075892
4	0x3e25bf77	0.1618632
5	0x3f3513b5	0.70733196
6	0x3f7fc6cd	0.9991272
7	0xbd381d02	-0.04494954
8	0x3f84648e	1.0343187
9	0x3f0ec937	0.5577578
10	0xbef8720a	-0.48524505
11	0xbf3e6605	-0.7437442
12	0x3f87eb8a	1.0618756
13	0xbd691626	-0.056905888
14	0xbeb6b432	-0.35684353
15	0x3f09d10c	0.53834605
16	0xbe93ccc4	-0.2886716
17	0x3fce96f7	1.6139821
18	0x3f1698b8	0.5882678
19	0x3f24343f	0.6414222

seq.4.weight f4 [20, 20]
0	0x3d1721e9	0.036897574
1	0xbf081152	-0.5315143
2	0x3ec93b45	0.39303032
3	0x3f17d997	0.5931639
4	0xbf414011	-0.7548838
5	0xbf2bc825	-0.6710227
6	0x3ee16d67	0.4402878
7	0x3e6b2e4c	0.2296688
8	0x3eccaebb	0.3997706
9	0xbde291f0	-0.110629916
10	0xbeaaa38f	-0.3332791
11	0x3e1ffc5a	0.15623608
12	0x3f436668	0.76328135
13	0xbf096ca2	-0.53681386
14	0x3f1063d4	0.56402326
15	0x3e974534	0.29544985
16	0xbccaf39c	-0.024774365
17	0x3f7fa4d9	0.9986091
18	0x3f0d96c5	0.5530818
19	0x3f3ad0f2	0.72975075
20	0xbde8082c	-0.11329684
21	0xbe20c76b	-0.15701072
22	0x3efbf0e1	0.49207214
23	0xbe2bc50c	-0.16774386
24	0xbdb548c1	-0.08851767
25	0xbe4ea3ae	-0.20179626
26	0xbea0f42a	-0.31436282
27	0x3dd34155	0.103151955
28	0x3e0642f5	0.1311148
29	0x3d8ee1d7	0.06976669
30	0x3e9e251a	0.3088768
31	0xbd7148c1	-0.058907274
32	0x3e83cac8	0.25740647
33	0x3dc22e07	0.09481435
34	0x3e65ead7	0.22452866
35	0x3ed419b0	0.41425848
36	0x3eaddce1	0.3395758
37	0x3d158551	0.036504094
38	0xbe849161	-0.25892165
39	0xbe4e09a9	-0.20120873
40	0xbf22ebe3	-0.63641185
41	0xbeca91c5	-0.39564338
42	0xbd96254b	-0.07331332
43	0xbe9d1e93	-0.3068739
44	0xbe8b809c	-0.2724656
45	0x3f04d95d	0.5189417
46	0x3e16dd3c	0.14732832
47	0x3e179abe	0.14805123
48	0x3d5042b1	0.050844852
49	0xbea3e404	-0.320099
50	0x3e935eec	0.28783357
51	0x3ec6dc00	0.38839722
52	0x3ec287c0	0.37994194
53	0xbda7c97f	-0.08192729
54	0xbf091d3e	-0.53560245
55	0x3e77291d	0.24136777
56	0xbe07a92c	-0.13248128
57	0x3f41f21e	0.75760067
58	0x3e76521f	0.24054764
59	0x3d6a242c	0.057163402
60	0xbe7c464a	-0.24636188
61	0xbd4ea3cd	-0.05044918
62	0x3ee51c0b	0.44747958
63	0xbe3ad46c	-0.18245095
64	0xbe002e15	-0.12517579
65	0xbe5bc14d	-0.21460457
66	0xbf043a90	-0.5165186
67	0xbc9ad2a6	-0.018899273
68	0xbf22e0b2	-0.6362411
69	0x3e2a4938	0.16629493
70	0xbe2dbc73	-0.16966419
71	0xbdb8b354	-0.09018579
72	0x3ee3a613	0.44462642
73	0xbd0274d0	-0.031849682
74	0x3e541145	0.20709713
75	0x3ed710e3	0.4200507
76	0xbd6bac4b	-0.05753736
77	0x3f12b4a3	0.5730688
78	0xbe4fabee	-0.2028043
79	0xbd9e7245	-0.07736639
80	0x3d3ebefd	0.04656886
81	0x3dcde80a	0.100540236
82	0xbd8eb9cc	-0.06969032
83	0x3f3462c0	0.7046318
84	0xbec6bc0a	-0.38815337
85	0x3c5f5dfe	0.013633249
86	0x3f0c12b4	0.5471604
87	0xbe365612	-0.1780627
88	0x3e659f8b	0.22424142
89	0x3ea4de74	0.32200968
90	0xbe6373e1	-0.22212173
91	0xbe99cfb5	-0.3004128
92	0x3f28d044	0.6594279
93	0x3d892ecb	0.06698378
94	0x3e61c679	0.22048368
95	0xbefafff3	-0.490234
96	0x3d3e5e5d	0.04647671
97	0x3e81a814	0.25323546
98	0x3cfe0553	0.031008398
99	0x3ecea7af	0.40362307
100	0xbe70619a	-0.23474732
101	0x3eb8b412	0.36074883
102	0x3ebad482	0.36490256
103	0xbdfe20d6	-0.12408607
104	0xbf33eafa	-0.7028042
105	0x3f3f5d17	0.7475142
106	0x3e567cd4	0.20946056
107	0x3f352ace	0.7076844
108	0x3ebf53ff	0.3736877
109	0x3f3802c9	0.7187925
110	0xbf56fdc1	-0.8398095
111	0xbf3b57d1	-0.7318087
112	0x3ee70e0f	0.45127913
113	0xbf76007d	-0.96094495
114	0xbe061794	-0.13094932
115	0x3c2188de	0.009859292
116	0xbfc39a83	-1.5281528
117	0xbf5f3e40	-0.8720436
118	0xbdb19139	-0.08670277
119	0xbeed2b2c	-0.46322
120	0x3e62b430	0.22139049
121	0x3dbe31ee	0.09286867
122	0xbdec0fb0	-0.1152643
123	0xbe332472	-0.17494372
124	0xbdaece27	-0.08535414
125	0x3e03df8f	0.1287825
126	0xbdb2b0bf	-0.08725118
127	0x3d63c044	0.05560328
128	0x3daff9a9	0.08592541
129	0xbdcc46d5	-0.09974448
130	0x3e39a61a	0.18129769
131	0x3e123ee2	0.142818
132	0xbda4e79d	-0.08051989
133	0x3e1d8fd4	0.15386897
134	0x3e89dece	0.269278
135	0x3dcf9e5c	0.101376265
136	0xbe14c146	-0.14526853
137	0xbdef7bd9	-0.11693544
138	0xbdd7ca27	-0.105366044
139	0xbe14e899	-0.14541854
140	0xbeb2e4af	-0.34940097
141	0xbe8f9a66	-0.28047484
142	0x3ead4048	0.33838105
143	0xbeef57f7	-0.467468
144	0xbe984d91	-0.29746678
145	0xbde48633	-0.11158409
146	0xbd9285e8	-0.07154447
147	0x3e9adfee	0.3024897
148	0xbe8ed792	-0.27898842
149	0x3e75a528	0.23988783
150	0xbe7501db	-0.23926489
151	0xbe65e40e	-0.22450277
152	0x3f0d867f	0.5528335
153	0xbd450a4d	-0.048105527
154	0x3eb0f333	0.34560546
155	0x3efcb2bc	0.49355114
156	0x3c003007	0.007823951
157	0x3f276edb	0.6540353
158	0x3ca7ed1c	0.020498805
159	0xbd76bbe6	-0.060237788
160	0x3e2f3717	0.17110859
161	0xbdba055b	-0.09083053
162	0xbe3e0e60	-0.18560171
163	0xbe064b92	-0.13114765
164	0xbdad5238	-0.084629476
165	0x3e3018f3	0.17197017
166	0xbd24456b	-0.040105265
167	0xbe189d5e	-0.14903781
168	0x3e47344e	0.19453546
169	0x3e4544aa	0.19264475
170	0x3e6dee91	0.23235537
171	0xbceb7476	-0.028742056
172	0xbe525f22	-0.20544103
173	0xbdecce12	-0.11562742
174	0x3e7bb32c	0.24580067
175	0xbd7b511a	-0.06135664
176	0xbdfd3592	-0.12363733
177	0x3cd63f3c	0.0261532
178	0x3df904da	0.121591285
179	0xbe47972e	-0.19491264
180	0x3cabc593	0.020968234
181	0x3da571e0	0.080783606
182	0xbd570dc4	-0.052503362
183	0xbdc86882	-0.09785558
184	0x3e5e597e	0.21713826
185	0x3d0d5024	0.034500256
186	0x3e87f777	0.26555988
187	0xbe809352	-0.25112396
188	0x3cafcbdc	0.021459512
189	0x3e4dc552	0.20094803
190	0x3d09e38f	0.033664282
191	0x3dfe1af2	0.12407483
192	0x3b1ddb0c	0.002408686
193	0xbe406027	-0.18786679
194	0xbea0bbda	-0.3139332
195	0xbe6f9d66	-0.23399886
196	0x3d140e12	0.03614623
197	0x3ea1fe4b	0.31639323
198	0x3e4c091c	0.1992535
199	0xbdc78b86	-0.09743409
200	0xbe888e3a	-0.2667101
201	0x3e50ea1d	0.20401807
202	0x3ddbe682	0.10737325
203	0x3db732ba	0.08945222
204	0xbf0b1b5c	-0.5433862
205	0x3f498c43	0.7872965
206	0x3dd0e0ff	0.101991646
207	0x3f1ac053	0.60449713
208	0x3eb450ec	0.35217988
209	0x3e72b436	0.23701558
210	0xbe53d04a	-0.20684925
211	0xbf1b940b	-0.6077277
212	0x3e37f9c9	0.17966379
213	0xbf38b031	-0.72143847
214	0x3edaa658	0.42705035
215	0xbd650730	-0.055915058
216	0xbf95c634	-1.1701112
217	0xbee86727	-0.453912
218	0x3deaf28b	0.11472043
219	0xbde86705	-0.113477744
220	0x3e6630ac	0.22479504
221	0x3e282702	0.1642113
222	0x3dfcb5e5	0.12339381
223	0x3ee7e8b2	0.4529472
224	0xbb546954	-0.0032411413
225	0x3e8ed73b	0.27898583
226	0x3e8209fa	0.25398237
227	0xbc892904	-0.01674319
228	0x3e887499	0.26651457
229	0x3e3ac909	0.18240751
230	0xbe97a338	-0.29616714
231	0xbef10b46	-0.47078913
232	0x3d4f35e3	0.0505885
233	0x3de55423	0.111976884
234	0xbe468179	-0.19385327
235	0xbebe1894	-0.37128127
236	0xbebce6dd	-0.36894885
237	0xbc5e9baa	-0.013586918
238	0x3e89775e	0.26848882
239	0x3d876d8a	0.0661269
240	0xbe20729d	-0.15668721
241	0xbd86d9ea	-0.065845326
242	0xbe00459c	-0.12526554
243	0xbd9fa0e0	-0.07794356
244	0xbe268aa8	-0.1626383
245	0xbd434abc	-0.047678694
246	0xbe61e24b	-0.2205898
247	0x3eb1745c	0.34659088
248	0x3c8058e5	0.015667388
249	0x3d52da68	0.05147782
250	0xbd96454b	-0.07337435
251	0x3eb17263	0.34657583
252	0x3d21a93c	0.039468035
253	0x3e15c5e6	0.14626274
254	0x3e519f37	0.20470892
255	0x3e17dd70	0.14830565

seq.4.bias f4 [20]
0	0x3ecf1dd6	0.4045245
1	0xbeac6ce3	-0.33676824
2	0x3ee5a1de	0.44850057
3	0x3eb3988c	0.35077322
4	0x3f10a71e	0.56505
5	0x3e5bfcbd	0.21483131
6	0x3dddeaa0	0.10835767
7	0x3e8e3b84	0.27779782
8	0xbdbced59	-0.09224958
9	0x3ea6c14e	0.32569355
10	0xbe1553cc	-0.14582747
11	0x3f69166f	0.91049856
12	0xbe205a61	-0.15659477
13	0x3ead4c46	0.33847255
14	0x3ec58880	0.38580704
15	0x3e5f5022	0.21807912
16	0xbe171ac8	-0.1475631
17	0xbdd532ca	-0.10410078
18	0xbd66d73e	-0.056357615
19	0xbe4bff34	-0.19921571

seq.6.weight f4 [2, 20]
0	0x3ff0db92	1.8817008
1	0xbe0597aa	-0.13046136
2	0x3fc0a79e	1.5051153
3	0x3ec1fa0e	0.3788609
4	0xbd53aed5	-0.051680405
5	0xc030767e	-2.7572322
6	0xbe2f27ed	-0.17105074
7	0x3edd8c0b	0.43270907
8	0xbebd788b	-0.3700603
9	0xbe0ddc36	-0.13853535
10	0xbff764db	-1.9327654
11	0xbee5792a	-0.44819003
12	0x3ee0bca1	0.43893912
13	0xbfc9f72f	-1.577856
14	0x3e2b525a	0.16730633
15	0xbf0fb542	-0.5613595
16	0xbe2fa9b1	-0.17154576
17	0xbfb1065c	-1.3830066
18	0x3fb5fcf4	1.421782
19	0xbf05e63c	-0.52304435
20	0x3f9c0968	1.219037
21	0xbf6be7c9	-0.9215055
22	0x382989b5	4.042099e-05
23	0xbfa439fb	-1.2830194
24	0x3fbe1b5e	1.4852102
25	0x3e16cc4f	0.14726375
26	0xbd9633a1	-0.07334066
27	0xbfa44d20	-1.2836037
28	0xbd409cc6	-0.04702451
29	0x3f13d328	0.57744074
30	0xbea12f86	-0.3148157
31	0x3f9d6990	1.229784
32	0x3e9b383e	0.30316347
33	0xbe097183	-0.13422208
34	0xbfb18489	-1.3868572
35	0x3e50dc4a	0.20396534
36	0x3e82c625	0.25541797
37	0xbe5e2f80	-0.21697807
38	0x3e7a33c1	0.24433805
39	0xbf37ca9d	-0.7179354

seq.6.bias f4 [2]
0	0x3f8eaf9c	1.1147342
1	0x3ed878af	0.42279574
