example/models/100r100r2_/model.pt (torch, 45255 bytes, 6 tensors)

seq.0.weight f4 [100, 4]
00000000: d712 bebe be0d 0b3f 1820 82be fc22 d9bb
00000010: 99cb 9f3e faae 893f cbea b73b 0c74 8c3c
00000020: a7f7 013f 0d9f b73e 2794 623e d61b a2be
00000030: cca3 97bf 1fef 47be 7fa2 3fbc fe92 b13c
00000040: 4d15 a73e 6eb2 d23d 42cb 85be a1ae 8dbe
00000050: 6805 703e 30a8 1a3f fe5f 09bb 1bc7 0139
00000060: 62da 77be 150a 9a3d 5d6a 653e 2ee0 eebd
00000070: ac55 3dbf 56da 883e 1104 cc3d 64c8 a8bd
00000080: 5947 3cbf 8ccc 213f 871c c63c 41f1 c73d
00000090: d8f0 32bd 4b6a 9dbd 55e7 b7be 8230 f4be
000000a0: 7bc9 5d3e 1ba2 13be da41 84be c4bf 14bf
000000b0: 837e 403e f332 fc3e 8c01 b63e 5f04 54be
000000c0: fe91 01bf 70ba 2c3e c0bf f73d 0294 213e
000000d0: d176 263f 9772 6c3f 8750 d6bd 7942 d2bd
000000e0: 7490 05bf ca1a f53d d39f 71be 024b fb3d
000000f0: b40b 1abe 5f66 86be 2076 e83e 7725 8cbe
00000100: 155c 063f 55ab 0fbf 1ba7 e63e b38b 51be
00000110: ca12 16bf fab9 86be 4f48 ae3c 9906 6fbe
00000120: c301 413f 3a22 8abe 1129 c33c 303c 8f3d
00000130: ed87 183f 7861 263f d010 04bb 34b5 ea3a
00000140: b078 3a3e 3f0d 513e b422 723e 0528 cabd
00000150: 32b2 203f dc7f bfbe cda5 313e 712c 633e
00000160: 7724 c0bd 583c a9bf a08b 5cbd a37a 17bd
00000170: 7847 c6bd 2874 4dbf 67ec 9f3d 90ad bd3c
00000180: fc0e 53be 0047 8d3e 3d19 27bb 8bb0 41bc
00000190: e635 e4be 4b0f b0bd 9e57 b3be 282c fcbd
000001a0: 3de9 bbbe fe56 b43e f695 cb3e daa5 213c
000001b0: 92b9 80be f3f8 9dbd e09d f23e f065 193f
000001c0: 962a f83e 9059 9e3e 1fb7 4cbd 00f3 56be
000001d0: 7b46 273e 1c19 17bf 1c0d af3e 66f7 42be
000001e0: 553c b9be 6b24 afbd e9e9 36bf fd1e 4dbf
000001f0: 4bb1 1cbf 1346 9fbd 75d2 8a3e 9864 d23d
00000200: 519d 07bf d375 a73e 6edb 4cbe a56a 3ebe
00000210: c239 16bf efe3 703e 07cd 943e 4adc b4be
00000220: d1d7 733f 0c2d 6c3d bc5b c8be ee00 87bc
00000230: ad59 9d3e 37a8 c0bc f195 113f 8a2d 283f
00000240: f539 143f 352c e13e 16fe 6c3e 22ed 5abd
00000250: ec8a fe3e c832 a4be 06fc 8e3e 4dd6 993e
00000260: 4827 90be 50e5 c1be 1038 a4be 6536 773e
00000270: 21c5 8c3e ebb2 1fbe 93dd f83e 414e 2b3f
00000280: 91f3 2bbe 3033 d7be 2027 22be 5bab e9bd
00000290: f797 28be 4fc7 253f 8bce ac3e c23c 833e
000002a0: 3c9a f2be 8c0d fcbd 0069 663d 5e12 a63e
000002b0: 70a4 843f 1def f3be bc76 4d3d d2e5 1ebe
000002c0: e7e9 b0be ed73 39bf 2ee8 dfbd 01c3 c63c
000002d0: 3351 4f3e 5b2b 373f f334 e8bb 9320 1e3c
000002e0: 52d4 e53e b030 ab3e 477c 383b 6ea0 883e
000002f0: afe1 f73e 9f78 31bf dd34 a1be fe11 9dbe
00000300: 80df ebbe 35e8 383f be14 813e 7d1e c43b
00000310: 1e97 d0be 93cf cf3d 3d48 bdbe 8f9a e63c
00000320: 520b 78be b971 bd3e 9302 b33e 73c9 e23e
00000330: 553c a13e 9958 93bd 15b2 17bc 87c3 31bc
00000340: b07a eabd ad8d 603d 31db 4b3e 78ef dfbe
00000350: 3c1f bebe 563c 46be a946 8fbe 0f87 043f
00000360: 423c fd3e bbbc 6a3e 4bb3 8f3e 8276 383e
00000370: b88e 90be 141f 54bf 918f 89bc c087 9d3d
00000380: 248f 463d 9495 583e df6f 71be a17d 81be
00000390: ab45 99be b1f1 96be 2a4e 383f 7bf9 4b3f
000003a0: e037 063f 05c8 143f 4005 50be 9ac4 723e
000003b0: 29a2 063e 038d 31be 3a61 b83e 8ae7 d33e
000003c0: b7d9 93be b04e b13d 4550 b73d bb88 9dbe
000003d0: 977f ffba f4cf 0e3f 64e4 c8bb 970f 89bd
000003e0: 78d1 93be 330e 87bf 610b f53d 1e65 a3bd
000003f0: c537 d6bd 0a01 1d3f 0ec5 25bb 7809 b4bb
-0.3712375 0.54317844 -0.2541511 -0.006626485 0.3121002 1.0756524 0.0056127063 0.01714518
0.5076851 0.35863534 0.22126828 -0.31661862 -1.1846862 -0.19524811 -0.011696457 0.021676537
0.3263344 0.10287939 -0.26131636 -0.27672294 0.23439562 0.60412884 -0.0020961757 0.00012376571
-0.242044 0.07521454 0.22403856 -0.11663853 -0.7395885 0.26729077 0.09961713 -0.082413465
-0.7354637 0.6320274 0.024183525 0.097628124 -0.043686718 -0.076862894 -0.3591868 -0.4769326
0.2165889 -0.14417307 -0.2583149 -0.5810511 0.1879826 0.4925762 0.35548055 -0.20704792
-0.5061339 0.16867995 0.1209712 0.15779117 0.6502505 0.9236235 -0.10464578 -0.10266585
-0.5217354 0.11968 -0.23596124 0.12270166 -0.15043527 -0.26249978 0.45402622 -0.27372333
0.52484256 -0.56120807 0.45049366 -0.20463447 -0.5862242 -0.26313764 0.021274714 -0.2334236
0.75393313 -0.26979238 0.023823293 0.06993902 0.59582406 0.64992476 -0.0020151623 0.0017906786
0.18210101 0.20415209 0.2364605 -0.09870914 0.62771904 -0.37402236 0.17348404 0.22184922
-0.09381955 -1.322154 -0.053844094 -0.03698219 -0.096816 -0.80255365 0.07808762 0.02315405
-0.20611185 0.2759323 -0.002549722 -0.011821876 -0.4457237 -0.08596667 -0.35027784 -0.1231311
-0.36701384 0.3522262 0.3976285 0.009866202 -0.2514158 -0.07713499 0.47386074 0.5992117
0.4846999 0.30927706 -0.049979325 -0.20991135 0.1633548 -0.5902269 0.3418969 -0.19039688
-0.36178842 -0.08551868 -0.7145067 -0.8012541 -0.6120803 -0.077770375 0.2711369 0.10273093
-0.5297442 0.3270708 -0.20005581 -0.18595369 -0.5868188 0.2352445 0.29062673 -0.35324317
0.95251185 0.057660148 -0.39132488 -0.016479935 0.3073248 -0.023517711 0.5686942 0.6569449
0.57900935 0.4397904 0.23143801 -0.053448804 0.49715364 -0.32069993 0.27926654 0.3004631
-0.2815497 -0.37870264 -0.32074022 0.24141844 0.27494147 -0.15595596 0.48606548 0.6691628
-0.16792132 -0.4203124 -0.15835238 -0.114096366 -0.1646422 0.64757246 0.3375133 0.25632292
-0.47383296 -0.12307271 0.05625248 0.32435888 1.0362682 -0.47643366 0.050162062 -0.15517357
-0.34553453 -0.72442514 -0.10932957 0.024262907 0.20245819 0.7155053 -0.00708639 0.009651321
0.4488855 0.33435583 0.0028150247 0.26684898 0.4841437 -0.6932468 -0.31485644 -0.3067779
-0.46068954 0.7222932 0.25211138 0.00598508 -0.40740293 0.101470135 -0.36969176 0.028149871
-0.24223068 0.37000826 0.349629 0.4429432 0.31491342 -0.07194633 -0.009258767 -0.01084984
-0.11449182 0.054822613 0.19907834 -0.43737388 -0.37133205 -0.19358954 -0.27983597 0.51768583
0.49460036 0.22923557 0.28066477 0.18013957 -0.28233886 -0.8285992 -0.01679209 0.07691908
0.048476353 0.2115081 -0.23577832 -0.2529116 -0.29935965 -0.2948127 0.7199427 0.7967755
0.5242901 0.58117706 -0.20314503 0.2370781 0.13147797 -0.17338948 0.36011678 0.41387588
-0.2887704 0.086575866 0.08950857 -0.3076838 -0.0019492981 0.5578606 -0.006130742 -0.06692427
-0.2887075 -1.0551208 0.11965061 -0.07978271 -0.10459856 0.6132971 -0.0025294456 -0.005494293

seq.0.bias f4 [100]
00000000: 3300 b63d 9d9a 0fbf ddbf 1f3f 37ed febe
00000010: 18be e33f 90ed 003f 627f 03bf e00f 60bf
00000020: 569a b53e f108 c8bd 7138 ea3d 60a6 b3be
00000030: 99b2 683f 8c9d 40bf ade4 103d 6032 6e3e
00000040: 9c9a 56be 4370 18bf 8207 14bf 2928 8c3f
00000050: 3509 aa3e f51c ddbe b498 803f f3ae 673f
00000060: 77c8 c33f 4ccc 133f 8acc d43e 78bc 0d3f
00000070: c1c4 0b3e cb6f 93be 95a8 66bf 305b 96be
00000080: c677 88be 7f0f d43e 914b 1abf 3a6c 12bf
00000090: 1836 823d a8af 053f 9757 3d3f 2799 5bbf
000000a0: b316 d63e 1af5 83be 263b c63e 2b35 67bf
000000b0: 5bea bebd 235c ee3e a22e 813e 1be9 fdbe
000000c0: 8111 05bf e20a 7bbe 0ebd 683f ea22 3e3f
000000d0: 12c6 80be 3201 c73d 7471 5a3f c0b9 7e3f
000000e0: d851 8dbe f822 30bf f7a5 7b3e f53b fe3f
000000f0: 0db8 853e 7f19 bc3f 9e93 fcbd 1d73 c6be
00000100: b45a 2e3f 35b5 0a3e 57ff ffbe 3123 433e
00000110: 6d52 4e3f c537 96bf df80 6ebf b23d 88be
00000120: 5b66 253d d357 1dbf 7bf2 353f 9ea9 73bd
00000130: b6d0 4c3f fcab 343f e9cd a13f 95a3 ad3f
00000140: 511a 623f f535 593f a2e0 0bbf db2e 9d3f
00000150: 72f7 e53e e1e3 ca3e a672 583e 12ec 503f
00000160: 7d2c 213f d820 04bd f5f3 193f 764d 903f
00000170: a6d9 80bf 3904 8d3e bfed aabe 8be3 7ebf
00000180: f051 1cbe e173 3ebf a501 ca3e 57c5 643f
0.08886757 -0.56095296 0.62402135 -0.49790356 1.7792387 0.5036249 -0.51366246 -0.87524223
0.3546931 -0.097673304 0.114365466 -0.35087872 0.9089752 -0.752404 0.035374332 0.23261404
-0.20957416 -0.595463 -0.57823956 1.0949756 0.3321015 -0.43186155 1.0046601 0.90501326
1.5295552 0.5773361 0.415623 0.55365705 0.13649274 -0.2879623 -0.90100986 -0.29366446
-0.2665388 0.41418073 -0.60271555 -0.5719639 0.06357974 0.52221155 0.73961776 -0.85780567
0.41814193 -0.25772935 0.38717002 -0.903155 -0.093220435 0.4655467 0.2523089 -0.49591908
-0.51979834 -0.2451587 0.90913475 0.74272025 -0.25151116 0.09717025 0.85329366 0.9950218
-0.27601504 -0.6880336 0.2457503 1.9862047 0.26116982 1.4695281 -0.12332843 -0.387597
0.6810715 0.13545687 -0.49999496 0.19056393 0.8059452 -1.173577 -0.9316539 -0.2660957
0.040380817 -0.61462134 0.7107312 -0.05948793 0.8000597 0.7057493 1.2640964 1.3565546
0.88321406 0.84847957 -0.5463964 1.2279924 0.44915348 0.39626983 0.21137485 0.81610215
0.6295851 -0.032257885 0.60137874 1.1273639 -1.0066421 0.27542284 -0.3338451 -0.99565953
-0.15265632 -0.7439557 0.3945438 0.89363617

seq.2.weight f4 [100, 100]
00000000: 7c59 903d 0c9e 9e3c e439 cabd 4f87 c3bb
00000010: 8626 8bbe 3fda 153d ca3e 693d 32d8 92bd
00000020: e5d9 c33d 6a5e ab3c 1529 80bd d59b 5abd
00000030: 3c7f b13d e2c3 183d 1aeb 6fbd 60f0 3bbc
00000040: 24ea bd3d ceb5 87bc 11e0 2a3e 63a4 fcbd
00000050: 88f7 e63b 5d45 edba 928c 29be 655c 0ebe
00000060: 02d2 083e b7e6 8dbd dd38 7e3d 6fd0 aabc
00000070: 3241 433d 6c4f be3d d626 41be 8adf 643d
00000080: a1f1 393d f14a c33d f483 1b3e 5988 883d
00000090: e5b9 63bc c4f8 9abd 26e5 a43d 9052 ab3b
000000a0: 9941 d4bb be20 65bd ef93 b53d bbf8 993d
000000b0: 86cb ea3b bd52 cb3d 52d7 653d c12c b4bd
000000c0: a915 cabc 843f 34bd 8a38 cd3d b9ec 29bd
000000d0: 3e26 8ebd d467 b53c 6a00 16bd d83e 59bb
000000e0: 36f5 efbd 429e 2dbe 6307 23bd 8c1e d1bd
000000f0: c26d 243d b94b 293e bc8b 9f3d 292b 95bd
00000100: 9a9c 013e 1f79 79bd e29b d6bc f646 353d
00000110: c00e bd3c ee54 99bd 5588 bbbd 71c9 fa3b
00000120: 8e9c 833d 451e 043c d769 40bb 7bab 943d
00000130: 6670 293c 0946 d93b 3ed2 0fbe 34f4 67bd
00000140: ee82 663d f38a 8b3c 459e 4a3d da73 04bd
00000150: cf56 8a3d 2e5a 01bd eea9 133c 231c 8dbd
00000160: 9622 3bbb 4373 20bd fcf6 2abd 429a 653c
00000170: 14ed 24be 0d46 4339 a0d2 7fbd f6d6 803d
00000180: c701 afbd 0df0 c1bd 067b 51bd 26c4 c2bd
00000190: 6eed 553c 197c 223d ce70 8ebd 9f73 94bd
000001a0: 17e0 3fbe 6458 173c b499 f8bd 9033 81bd
000001b0: c258 cdbb 1523 65bd 68a8 88bd 53e6 1f3e
000001c0: b430 cf3b 989c 573d 8061 fb3c 0224 07be
000001d0: 1b50 b0bc 4208 38bd 2938 f53d 91c1 68bc
000001e0: c0c9 e33d 45fd 013e d55a 18be 3eb0 3ebe
000001f0: d78b a3bd 30be 90bd f14a 75bc e8ba d4bd
00000200: a7fd 183d 04ca 643d 0291 893d ea05 223d
00000210: ca0c 4a3d e3a1 d7bd 3d56 2a3d 4fc7 913c
00000220: 08df 873d 95e8 49bd 5efe e3bd 63f8 673d
00000230: c38a c2bd f381 a03d 9f92 cebd 8269 643e
00000240: 1780 123d e844 1a3e 9ca8 603d c319 b1bb
00000250: 6088 283e 257f 6dbd b296 31bd 1819 9bbd
00000260: 98d7 7e3d b638 f7bc d561 0fbd 05a5 11be
00000270: 3064 ab3d 7cde b5bb 5988 803d 0601 8bbe
00000280: 5d92 b0bd e445 a73d 9000 aebd ba43 fdbc
00000290: f1d1 4e3e ca5b b7bc cc76 843d dea9 92bc
000002a0: b692 8bbd b281 debd 308e 8d3d 4550 92bd
000002b0: c272 ae3d fe1b ee3d 46f1 463e e5ed 373e
000002c0: 1c65 a9bd 2fc4 c4bd 40df 7b3c 336e 8a3c
000002d0: 1f3d 46bc 83e0 28bd 03d2 513e 7401 2cbe
000002e0: 55d4 95bd d8b7 9dbc 8b18 b83d c67c 14bb
000002f0: 13a0 2bbe e29b c43c bbfc d0bb ddb6 7bbd
00000300: 4a63 fdbd 4a1e c8bd 57d7 153e 60ee a33d
00000310: 38e1 00bd f097 2d3e 634d aebc 3ffd a9bc
00000320: 5b16 493d b205 d83d cfa7 e6bd 50e2 983d
00000330: c2f1 fabd b771 a3be 1838 1e3e f508 c33e
00000340: b7b1 573d d89d 903d 9964 e1bc da80 1a3d
00000350: 441c debe a212 84be 1fd0 7dbb e6c8 7eba
00000360: 2cde 49bd f9b5 963e f753 f9bd e7e3 dcbd
00000370: 8bd5 503d 865b 823d 060a 783e 1fb2 183e
00000380: fb55 ffbe 87e7 39be e27f 25be 823e 97bd
00000390: fb00 0a3d 997c 883d ce29 5c3e 051e 293d
000003a0: 849a 813e ccc3 5ebe 371f 34be 2b1a 50bd
000003b0: 186a c1bd b70c 753e 0a10 f53c 97b0 f2bb
000003c0: 87da 863d 1079 143e 0c8d 36bd c4ae f6bd
000003d0: be6d 3cbe 15d5 c0be 8bd3 9eba fc9b 82bd
000003e0: 8c9d a33e 842d 793d 3319 5fbe 9bd6 863e
000003f0: 8456 22bb 715e 483c 460c 2b3e 5446 af3d
0.07048318 0.019362472 -0.09874323 -0.005967058 -0.2717783 0.03658509 0.056944646 -0.07170142
0.095630445 0.020919044 -0.06257836 -0.05337127 0.08666846 0.037296183 -0.05857382 -0.011470884
0.092731744 -0.016566183 0.16687037 -0.12336042 0.007048551 -0.0018102337 -0.1655753 -0.13902433
0.13361362 -0.06928771 0.062065948 -0.020851342 0.047669597 0.09292492 -0.18862471 0.055877246
0.04539645 0.09535778 0.15187055 0.06666631 -0.013899301 -0.075669795 0.08051519 0.005228348
-0.0064775464 -0.05593943 0.08866107 0.07518145 0.007165375 0.099278904 0.05611355 -0.08797599
-0.024668531 -0.044005886 0.100205496 -0.041485522 -0.06940888 0.022144236 -0.03662149 -0.003314903
-0.11716692 -0.16954902 -0.039801966 -0.102109045 0.040143736 0.16532792 0.07790324 -0.07283623
0.12657395 -0.060906526 -0.026197378 0.044257127 0.023078322 -0.07486902 -0.09156863 0.007653408
0.06426345 0.008063857 -0.002935996 0.0725927 0.010341739 0.0066306633 -0.14045045 -0.056629375
0.056277208 0.01703403 0.049467344 -0.032337047 0.06754839 -0.031580143 0.009012682 -0.06890132
-0.002855455 -0.039172422 -0.04173945 0.014013829 -0.16106063 0.00018622745 -0.062456727 0.062910005
-0.08545261 -0.09469614 -0.051142715 -0.095100686 0.013057096 0.03966913 -0.069551095 -0.072486155
-0.18737827 0.009237383 -0.121386915 -0.06308663 -0.0062666843 -0.05594166 -0.06672746 0.15615205
0.0063229445 0.052639574 0.03068614 -0.1319733 -0.021522572 -0.04492975 0.11973602 -0.014206306
0.11122465 0.12694271 -0.148784 -0.18621919 -0.07985657 -0.070675254 -0.014971481 -0.10387212
0.037351277 0.05585672 0.06717111 0.03955642 0.049328603 -0.10528924 0.04158615 0.017795233
0.06634337 -0.049294073 -0.11132501 0.056633364 -0.09499123 0.07837286 -0.100865595 0.22305873
0.035766687 0.15065348 0.0548483 -0.0054046824 0.16458273 -0.057982583 -0.043356605 -0.07573146
0.062217325 -0.03017841 -0.03500541 -0.14223106 0.083687186 -0.005550204 0.06276006 -0.27149218
-0.086216666 0.081676275 -0.08496201 -0.030916084 0.20197274 -0.022382636 0.06467971 -0.017903265
-0.06815092 -0.10864581 0.06911886 -0.071442164 0.08517982 0.11626433 0.19427976 0.17961843
-0.08271238 -0.096077316 0.015373051 0.01689825 -0.012099533 -0.041229736 0.2049027 -0.1679743
-0.0731589 -0.019252703 0.08989056 -0.0022657379 -0.16760282 0.024000112 -0.006377784 -0.06145369
-0.123724535 -0.09771402 0.14632927 0.08004451 -0.031464785 0.16952491 -0.021277135 -0.02075064
0.049093585 0.10547961 -0.11262476 0.07465041 -0.12253143 -0.31922695 0.15451086 0.3809277
0.052659716 0.07061356 -0.027513789 0.03772054 -0.4338094 -0.25795466 -0.0038728786 -0.0009719267
-0.049284145 0.2943571 -0.12174218 -0.107856564 0.0509849 0.06365113 0.24222574 0.14911698
-0.49870285 -0.18154727 -0.16162065 -0.07384969 0.03369234 0.0666439 0.21500322 0.041288394
0.253132 -0.21754378 -0.17590033 -0.050806206 -0.09444064 0.23930632 0.029914875 -0.007406305
0.065846495 0.14499307 -0.044568107 -0.12045053 -0.18401238 -0.3766257 -0.0012117488 -0.06377408
0.31956136 0.060834423 -0.21786956 0.26335606 -0.0024770806 0.012229548 0.167039 0.08558336

seq.2.bias f4 [100]
00000000: 03b4 b53c 825d 9bbd aef1 5bbe be28 8f3c
00000010: 0c94 193e ee7e 29be 018b d5bd 0b8d 023f
00000020: 5d1f d63d 7f6f 803d c8e4 d73e 2018 7bbe
00000030: d64a 03bd 3178 183d 6993 b5bd 584e 86be
00000040: 90f0 4e3c 66c1 c0bd a21a 2d3d 06fc f83d
00000050: 7c1d 323d 5b6e d03e 0508 a5bd fb6b b0bc
00000060: 32f6 dc3d 0a8c e03e a1a0 e0bd 9e87 48bd
00000070: 2ad2 723d 1d19 8ebd 978c 6a3e feb5 8e3e
00000080: 2415 193e 0d1f 4e3e 0932 97be 6c8b c5bd
00000090: 4d84 873c cb40 0bbe 2b89 18bd 9d5f 303c
000000a0: c25d 063e abc0 293d 61d5 adbd 8745 013e
000000b0: 0493 1b3d 9533 433e f6f8 173e 4ce0 9c3d
000000c0: 0eb5 8d3e 5675 593e 4ff6 a0bd 7177 043f
000000d0: 1945 43be 094d 0ebd e852 37be 12fe 1ebe
000000e0: 56c5 983d 2ac2 f83c 5258 f53d 9cd1 d03d
000000f0: 49ec 4f3e e7fc 7fbc ab3f 153d 4272 0b3e
00000100: c40e cebd a0c0 243e ec0c 19bf 153e 81be
00000110: eb84 2c3e 92ad 80bd 2866 8e3d 3181 b9bd
00000120: 68a4 173e 4027 33be fa4d dfbb 8968 3f3e
00000130: 17ec 933d 9372 a13e 81d6 323e 615b 9f3c
00000140: a822 46bd cbf0 22bd 2fc7 e73e f012 6b3d
00000150: 6001 fdbd 6701 f8bc 24d9 d2bb 56e1 613d
00000160: a4f6 aa3e 53db a93e d1c4 163e 16e9 81bd
00000170: 3b9e cebe aa1a 47be 021c 913d 5083 8cbe
00000180: f09f 45be c8ca 633d 2419 71bd e852 1d3d
0.022180563 -0.075861946 -0.21478912 0.017475482 0.14997882 -0.16552326 -0.104269035 0.50996464
0.10455201 0.06271266 0.42166734 -0.24520922 -0.03205379 0.037224 -0.08866007 -0.26231647
0.012630597 -0.09411888 0.042261727 0.12157445 0.04348515 0.40709195 -0.0805817 -0.021535864
0.107891455 0.4385684 -0.109681375 -0.04895746 0.05928246 -0.06938384 0.22905193 0.27873224
0.14949471 0.20129032 -0.2953036 -0.09645733 0.016542578 -0.13598935 -0.03724019 0.0107649835
0.13121703 0.041443508 -0.084879644 0.12624179 0.037982002 0.19062646 0.14841065 0.07659969
0.27677196 0.21236166 -0.0785948 0.51744753 -0.19069327 -0.034741435 -0.1790272 -0.15526608
0.07459514 0.030366022 0.119797364 0.1019623 0.2030498 -0.015624261 0.03643767 0.13617805
-0.1006141 0.16089106 -0.5978534 -0.25242677 0.16847579 -0.06283106 0.069530785 -0.090578444
0.1480881 -0.17495441 -0.0068147155 0.18692221 0.07222765 0.31532726 0.17464639 0.019452753
-0.048372895 -0.03978042 0.45269153 0.057391107 -0.12353778 -0.030274106 -0.0064345766 0.055146538
0.33391297 0.33175144 0.14723517 -0.06343286 -0.40355095 -0.19443765 0.0708542 -0.27443933
-0.19299293 0.05561331 -0.058861867 0.038409144

seq.4.weight f4 [2, 100]
00000000: 4910 dcbe ef8b 3ebf 9511 e83f 30ae b43e
00000010: a0f7 4dbe 17df a3be 414c 553f 16d6 373f
00000020: 845c d93e 4580 4d3f 11c7 0f3f 318a 41bf
00000030: 78af 75bd f7c9 f5be ae47 2bbe e6ce 5e3f
00000040: cc09 85bd 6698 25bf 8aff d93d 4ebf 8abe
00000050: 2289 23bf e147 d7bf c62c c8be d211 f73c
00000060: 1ba5 1f3e 89a7 8ebf 9c11 b7bf e867 043f
00000070: 3ece b1bd 8aba d0be b30a 3bbf 784a b73e
00000080: f8d5 563d 750e ae3d 2c07 923f a4ad b5be
00000090: c761 303d 1ec4 ebbe 4f6d 6cbe c87c 533f
000000a0: 62f1 ccbe 49ee 49bb 1655 5abf c574 7a3e
000000b0: de1c 3f3f 7750 6ebe f492 ccbc b2ae a0be
000000c0: db9d 83bf 9571 ce3b d9cd b2be 6e00 c03f
000000d0: c03a 19bf 390f aebe 485b d2be 6d29 843e
000000e0: 507f e13d 26f4 4a3e 5e5b dbbe 400a 803e
000000f0: 8a23 04bf 0292 913e cccc c1bd 7b6d 543e
00000100: fd76 8abf 85aa 60be 80b4 1b40 e139 d0bf
00000110: 13a7 4c3f ba80 5abe e3c3 093f 7752 f7bd
00000120: de65 363e 74d5 f63e 0854 753f dec2 f1be
00000130: 4ee6 e9bd 62a3 ac3f 41ba 083f b2b6 15bf
00000140: 8149 18be defe 65be fa5b a7bf c2a7 b03e
00000150: 703e f4be f216 943e 7e1f 2e3e 8848 193e
00000160: 5c20 993f 26f6 94bc bf31 62be 1ec1 4fbe
00000170: 6ec4 ebbf 41fc 94bf 89d1 743e 7bda 55bf
00000180: 6afe 8abf a255 12bf 829f b8bc 5fcc 7c3f
00000190: 80c8 7cbe 1b8b d5bd 525c 70be 3c5b 42bc
000001a0: ca0e dd3e dd88 4f3e 5112 8abe a386 ac3f
000001b0: 6ad6 2f3f 17f1 3e3e bd6d 9cbf 8f5e a7bd
000001c0: 2915 aa3e 3a9d 24be c7a9 0bbe cc21 f33c
000001d0: e585 79be 8408 b0be a250 903e 1dbe 1f3e
000001e0: 4f59 adbd 018c c23d c74c 86bb 5cb0 ba3d
000001f0: 36a1 eabe bd39 e03e ccc5 47be ac41 92bd
00000200: c3a4 e43e b7e3 ddbd ec1d 0ebd 5fa0 04bf
00000210: 4c40 4d3f 0987 4fbf a3d1 a0bd 5d02 1abe
00000220: c449 a63d 46a1 7fbd 3648 eabe 0431 1b3d
00000230: c0d7 bbbe 3199 d53b 921a 2ebe c76c 443e
00000240: 5cfd 55bd 112d 083f 2a66 123f 0308 cf3d
00000250: 1332 cabd 6ddd 46bf a099 7fbe f6f7 cbbd
00000260: 4aac 5bbe 5db4 abbe b066 dfbe f2d5 98be
00000270: b60d ff3e 8487 833d 4241 65be c6c2 163e
00000280: 8ce1 7d3e 0bd3 c33d 8962 bd3e 870e 1dbf
00000290: 86ac d9bd 8a23 113f 0c98 f93d 999a e93c
000002a0: ea84 793e 9089 6abe 2f1f 783f 1bef 0ebe
000002b0: bd48 2b3f c326 513e 5b10 d73d 868b aebc
000002c0: b5c4 c2bd 73ef 47be 025e 87be 0378 26bf
000002d0: 799b b3be 0503 c43e 85c5 f2bc 499e cebe
000002e0: 8281 76bd fefa 8f3d 3436 02be f27a bfbc
000002f0: 1751 9d3e 2adb 89bf 7ab3 6c3e 28d3 fc3c
00000300: 5752 0cbe 4c1e 1a3e 326b 2a3c b539 863e
00000310: 9b72 8a3d d262 533d 1f06 b23e 22eb 883d
-0.42981175 -0.7443227 1.8130366 0.35289145 -0.20113993 -0.32006142 0.8331948 0.71811044
0.42453396 0.8027385 0.56163126 -0.7560149 -0.059981793 -0.4800565 -0.16726562 0.8703445
-0.06496009 -0.64685667 0.10644443 -0.2709908 -0.63881123 -1.6818811 -0.3909666 0.030159865
0.15590326 -1.1144878 -1.4302249 0.5172105 -0.08681916 -0.40767318 -0.730632 0.35799003
0.05245015 0.08498851 1.1408439 -0.3548404 0.043061998 -0.46048063 -0.23088573 0.82612276
-0.4002791 -0.0030812195 -0.8528608 0.24458607 0.7465342 -0.23272882 -0.024972416 -0.31383282
-1.0282549 0.006300161 -0.34922674 1.5000131 -0.5985527 -0.3399599 -0.41085267 0.25812855
0.11010611 0.19819698 -0.42843145 0.2500782 -0.5161673 0.28431708 -0.0946289 0.20744888
-1.0817562 -0.21940048 2.4328918 -1.6267663 0.79942435 -0.21338168 0.53814524 -0.12076276
0.17812297 0.48209727 0.95831347 -0.47218984 -0.1142088 1.348736 0.534092 -0.58481896
-0.1487179 -0.22460505 -1.3074944 0.3450299 -0.47703886 0.28923756 0.17004201 0.14969075
1.1963 -0.018183779 -0.22089289 -0.20288512 -1.841932 -1.1639482 0.23908056 -0.835365
-1.0858891 -0.57161915 -0.022536997 0.98749346 -0.2468586 -0.10426923 -0.23472717 -0.011862572
0.43175346 0.20267053 -0.269671 1.3478588 0.68686545 0.18646656 -1.222099 -0.081723325
0.3321927 -0.16075602 -0.13638984 0.029679202 -0.24367483 -0.34381497 0.28186518 0.15599866
-0.084643 0.0949936 -0.004098508 0.09115669 -0.4582612 0.4379405 -0.19509047 -0.07141432
0.44656953 -0.10834449 -0.034696504 -0.51807207 0.80176234 -0.8106542 -0.07852485 -0.15039964
0.081195384 -0.06240966 -0.45758218 0.03788854 -0.36688042 0.006518506 -0.17002323 0.1918212
-0.052243575 0.53193766 0.5718714 0.1010895 -0.09872832 -0.7768162 -0.24960947 -0.09959404
-0.21452442 -0.33536044 -0.43633032 -0.29850727 0.49815148 0.06422332 -0.22388175 0.14722738
0.2479307 0.095617376 0.3698924 -0.6135029 -0.10628609 0.56694853 0.12187204 0.0285161
0.24367109 -0.22904038 0.9692258 -0.13958399 0.66907865 0.20424943 0.105011664 -0.021306764
-0.09510175 -0.19524936 -0.2643891 -0.65026873 -0.35079554 0.38283554 -0.0296352 -0.40355137
-0.060182102 0.07030295 -0.1271599 -0.023374055 0.3072593 -1.0770009 0.2311534 0.030862406
-0.13703285 0.1505062 0.010401534 0.26215902 0.067601405 0.051607914 0.34770295 0.06685473

seq.4.bias f4 [2]
00000000: e033 2a3e f96c 773e
0.16621351 0.24162664
