example/models/20r20r20r2_/model.pt (torch, 6459 bytes, 8 tensors)

seq.0.weight f4 [20, 4]
0	0x3e709854	0.23495609
1	0x3db1d2cd	0.08682785
2	0x3a0800fe	0.0005188136
3	0x3beb3f16	0.0071791513
4	0x3f248709	0.6426855
5	0xbf46a3f6	-0.77593935
6	0x3d2a6c97	0.041607466
7	0x3e97eaa4	0.29671204
8	0x3e993f79	0.29931238
9	0x3f9b161c	1.2116122
10	0xbc9d701e	-0.0192185
11	0xbcb05184	-0.021523245
12	0x3f29cb63	0.6632597
13	0x3eca9264	0.39564812
14	0x3b988c57	0.0046554017
15	0x3d188514	0.03723629
16	0xbae1e15b	-0.0017233299
17	0xbd80d96c	-0.0629147
18	0x3f0c5db6	0.5483049
19	0x3f186108	0.5952306
20	0x3f0ffc6b	0.56244534
21	0x3eb76656	0.35820264
22	0xbba43335	-0.005010987
23	0xbc008925	-0.007845198
24	0xbef45a72	-0.47725254
25	0xbf5ff5e3	-0.8748457
26	0x3e356796	0.17715296
27	0x3e5ca8f3	0.21548824
28	0xbe147055	-0.14495976
29	0x3d5cd306	0.053912185
30	0x3eabf513	0.33585414
31	0x3eed8871	0.4639316
32	0xbeabd721	-0.33562568
33	0xbe67b977	-0.22629343
34	0xbe65bd58	-0.2243551
35	0x3e135d47	0.14391051
36	0xbed211d2	-0.4102922
37	0xbcb125ae	-0.021624412
38	0x3eb8d770	0.36101866
39	0x3eb7d8c5	0.3590757
40	0xbef8dd9b	-0.48606572
41	0xbf84176f	-1.0319651
42	0xbbc054e0	-0.005869493
43	0xbbbe429a	-0.0058062794
44	0xbeb61280	-0.3556099
45	0xbd5af8fe	-0.053460114
46	0x3cbf3bb9	0.023343908
47	0xbd06bb2f	-0.032893356
48	0x3f0649ed	0.5245655
49	0xbf134f05	-0.5754245
50	0xbd25751a	-0.04039488
51	0xbe90c013	-0.2827154
52	0xbf85d10f	-1.0454425
53	0x3e9073fa	0.28213483
54	0x3e4c8dbe	0.19975945
55	0x3e149664	0.14510494
56	0x3d813fec	0.0631102
57	0x3de9b1d5	0.11410872
58	0xbe67e7eb	-0.22647063
59	0xbebd8aeb	-0.37020048
60	0x3b80b367	0.0039276364
61	0x3d406238	0.04696867
62	0x3ea70866	0.32623595
63	0x3ecf021b	0.40431294
64	0xbe660724	-0.22463661
65	0x3d43222d	0.047640014
66	0xbf01599f	-0.50527376
67	0xbf1642b6	-0.5869554
68	0x3d0f41f2	0.034975
69	0xbefca9d1	-0.4934831
70	0xbdb5802c	-0.088623375
71	0xbdbf1ce7	-0.093316846
72	0xbcbf22ae	-0.023331966
73	0xbf239908	-0.6390538
74	0x3eb55921	0.35419562
75	0x3d506382	0.050876148
76	0x3cbba44b	0.02290549
77	0x3caee42b	0.021349033
78	0xbe6edfe7	-0.233276
79	0xbe4e11fe	-0.20124051

seq.0.bias f4 [20]
0	0xbfa2ae18	-1.2709379
1	0xbe56b36a	-0.20966879
2	0xbf9b7cde	-1.2147481
3	0x3f29f5d8	0.6639075
4	0x3ea32293	0.31862316
5	0xc0167ea6	-2.35148
6	0xbf5c34ef	-0.8601827
7	0x3ead0dab	0.3379949
8	0x3f240012	0.6406261
9	0xbe8ddca9	-0.27707413
10	0xbf984f4b	-1.1899198
11	0x3fdf60c7	1.7451409
12	0x3ebf81d4	0.37403738
13	0xbdb3e980	-0.08784771
14	0x3fb3cf7b	1.4047693
15	0x40004f6e	2.004848
16	0xbfa05757	-1.2526654
17	0x3f20ac0c	0.6276252
18	0x3e83237d	0.25613013
19	0x3f8e8053	1.1132911

seq.2.weight f4 [20, 20]
0	0xbe166dac	-0.14690274
1	0xbd6a5126	-0.057206295
2	0xbacb3f1b	-0.0015506478
3	0x3b0c2401	0.0021383765
4	0xbea2d1eb	-0.3180078
5	0x3e6f0215	0.23340638
6	0x3d454b25	0.048167367
7	0xbe76c681	-0.2409916
8	0x3eda9b89	0.4269679
9	0x3e92cb2f	0.28670642
10	0x3de24fec	0.110504
11	0x3eb309e6	0.3496849
12	0x3dbd1789	0.092330046
13	0x3e81af28	0.25328946
14	0xbe9d8bf3	-0.30770835
15	0x3eb39541	0.3507481
16	0xbe8b3ba4	-0.2719394
17	0x3e59096b	0.21194999
18	0x3e0cff7d	0.13769336
19	0xbda63cae	-0.081170425
20	0x3e10284f	0.14077877
21	0x3e230aee	0.15922138
22	0x3dab2d2c	0.08358225
23	0x3d601c04	0.054714218
24	0x3e6597fe	0.22421262
25	0x3e9af4f2	0.30265003
26	0x3e4ebbc1	0.2018881
27	0x3d8b0282	0.06787588
28	0x3e6444fc	0.2229194
29	0xbcb10b1b	-0.02161174
30	0x3d84e02d	0.06488071
31	0x3e2fbe18	0.17162359
32	0xbd732b7c	-0.05936764
33	0xbeb306ed	-0.3496622
34	0xbd7d148f	-0.061787184
35	0x3e00a847	0.12564193
36	0xbec33a87	-0.3813059
37	0xbdd04b71	-0.10170639
38	0xbda70961	-0.08156086
39	0xbe95a13d	-0.29224578
40	0xbdf92690	-0.12165558
41	0x3e01e77d	0.12685962
42	0x3e9978e3	0.29975042
43	0x3d85860a	0.065197065
44	0xbe3acd3e	-0.18242356
45	0x3e3afd43	0.18260674
46	0xbe14c00b	-0.14526384
47	0xbea89b09	-0.32930782
48	0x3ec07f9f	0.37597367
49	0x3e532775	0.2062052
50	0xbe6af80e	-0.22946188
51	0x3f0c29a4	0.5475104
52	0x3e43e481	0.19130136
53	0x3e477527	0.19478284
54	0x3e6990f7	0.22809206
55	0xbf5b9cbb	-0.85786027
56	0x3e181c76	0.14854607
57	0x3e91b186	0.28455752
58	0x3e8282d6	0.25490445
59	0x3e999ec0	0.3000393
60	0x3c253c12	0.010085123
61	0x3e6e061d	0.2324452
62	0x3eb50acd	0.35359803
63	0xbe208ef4	-0.15679532
64	0xbe1b584d	-0.15170403
65	0x3cd71e1c	0.026259474
66	0xbebbfb2b	-0.36715063
67	0xbec6264a	-0.38701087
68	0x3c48d7d2	0.012258487
69	0xbe85f4fb	-0.26163468
70	0xbdaa4153	-0.08313241
71	0x3e9f2404	0.31082165
72	0x3e31eee9	0.17376293
73	0x3e288318	0.16456258
74	0x3d7c64dd	0.06161963
75	0x3c52dced	0.012870056
76	0x3e08f0e9	0.1337315
77	0x3e6622b3	0.22474174
78	0xbcc40794	-0.023929395
79	0x3edd3054	0.43200934
80	0xbee1f3f0	-0.44131422
81	0x3b06dc30	0.002057802
82	0x3eb52e73	0.35387
83	0xbeb36142	-0.3503514
84	0x3e25c8a1	0.16189815
85	0xbede35e7	-0.434005
86	0xbe101355	-0.14069875
87	0xbe6139e1	-0.21994735
88	0xbdd49d49	-0.10381562
89	0xbb9a669b	-0.0047119386
90	0xbda5125c	-0.080601424
91	0xbe22de39	-0.15905084
92	0xbd708fde	-0.058730952
93	0xbe8462e3	-0.25856695
94	0xbd910f7e	-0.07083033
95	0x3e33fbc1	0.17576505
96	0x3d05b8bd	0.032646883
97	0x3ea954bd	0.33072463
98	0x3d0c3d07	0.034237888
99	0x3d094e8e	0.03352218
100	0xbe9a0a05	-0.3008577
101	0x3e99bfe0	0.30029202
102	0x3ef1caf2	0.47225147
103	0xbe090757	-0.13381706
104	0xbe16d6cd	-0.14730377
105	0x3e1b9770	0.15194488
106	0xbe9b6f17	-0.30358192
107	0xbe32293a	-0.17398539
108	0x3eadd720	0.3395319
109	0x3e4c0112	0.19922283
110	0xbde51053	-0.11184754
111	0x3eeeafa6	0.46618384
112	0x3df48bd7	0.11940735
113	0xbd5c4695	-0.05377825
114	0xbed5a1e7	-0.41725084
115	0x3e64fbd5	0.22361691
116	0xbec5c143	-0.3862401
117	0x3df23616	0.11826722
118	0x3e937b97	0.2880523
119	0xbe8535a1	-0.26017478
120	0x3e9194e2	0.284339
121	0xbef48725	-0.47759357
122	0xbee857ee	-0.45379585
123	0xbea91cfe	-0.33029932
124	0xbe3d000f	-0.18457054
125	0xbe934d50	-0.28769922
126	0x3f18b24a	0.5964705
127	0x3e49510e	0.19659826
128	0x3d98477d	0.0743551
129	0x3e92673b	0.28594384
130	0x3e9f2f27	0.31090662
131	0xbf295f5d	-0.6616114
132	0xbe3f8389	-0.1870252
133	0x3f49733e	0.7869147
134	0xbf076c15	-0.52899295
135	0xbf73160a	-0.94955504
136	0x3f1e6121	0.61866957
137	0xbe580588	-0.2109586
138	0xbe7ceef8	-0.24700534
139	0xbf0948db	-0.53626794
140	0xbcc21664	-0.023692317
141	0xbbcdffd6	-0.0062866015
142	0xbf0bdd9b	-0.5463502
143	0x3dcd6ca7	0.100304894
144	0xbe6b0429	-0.22950806
145	0xbe82c88c	-0.2554363
146	0xbcb56f5e	-0.02214783
147	0x3e1365bb	0.14394276
148	0x3e9cf315	0.30654207
149	0xbb5f47c1	-0.0034069868
150	0xbdf05c69	-0.11736376
151	0x3e7b9eeb	0.24572341
152	0xbcdce170	-0.026962966
153	0x3ea3e9c1	0.32014278
154	0x3e2261b9	0.1585759
155	0xbe0e1f93	-0.13879232
156	0xbd93aaaa	-0.07210286
157	0xbe1b5dca	-0.15172496
158	0xbde2edd3	-0.110805176
159	0xbe246b0b	-0.16056459
160	0xbe8b7330	-0.2723632
161	0xbe3ff1a2	-0.1874452
162	0xbe473a3a	-0.19455805
163	0x3e189aa9	0.14902748
164	0xbe4531e0	-0.19257307
165	0xbef899f2	-0.4855495
166	0xbe78bdc2	-0.24291137
167	0xbe0226cf	-0.12710117
168	0x3e4f4bc7	0.2024375
169	0xbd4c5608	-0.049886733
170	0xbf1263de	-0.57183635
171	0x3f389556	0.7210287
172	0xbd77031c	-0.0603057
173	0xbc0745fd	-0.008256433
174	0x3deac931	0.114641555
175	0x3f39b093	0.72535056
176	0xbe860614	-0.26176512
177	0x3e4f43cc	0.20240706
178	0x3ddbd440	0.10733843
179	0x3ebd1139	0.36927202
180	0xbdd1c0df	-0.10241865
181	0x3d80fa7a	0.062977746
182	0x3dd20df6	0.10256569
183	0x3e774e8b	0.24151056
184	0x3edbb08c	0.42908132
185	0x3d867224	0.06564739
186	0xbe3dbf67	-0.18530045
187	0x3e961ec2	0.2932034
188	0x3e0445a0	0.12917185
189	0x3eb24180	0.34815598
190	0xbd37aaf9	-0.044840787
191	0xbd31602e	-0.043304615
192	0x3e5171b3	0.20453529
193	0xbd7a6b09	-0.061137233
194	0xbde5a751	-0.11213554
195	0x3f12b6a4	0.5730994
196	0x3d5f0e4f	0.054457005
197	0xbdf82d1a	-0.121179774
198	0xbda3b5b8	-0.079936445
199	0xbe797bed	-0.2436368
200	0x3e9d0a39	0.30671862
201	0x3e351ee3	0.17687564
202	0x3ea57194	0.32313216
203	0x3e412c9d	0.18864675
204	0x3e692e47	0.2277156
205	0x3ef89cde	0.4855718
206	0xbe79977d	-0.24374194
207	0x3e4decff	0.20109938
208	0x3d85d560	0.06534839
209	0x3e488ee5	0.1958576
210	0xbd4236ad	-0.047415424
211	0xbdf05ff9	-0.11737055
212	0x3edc886b	0.4307283
213	0x3f168204	0.5879214
214	0xbf445cb4	-0.76703954
215	0x3e23aafb	0.15983193
216	0x3ee60b5c	0.44930542
217	0x3d2e1de2	0.042508967
218	0x3d39da3d	0.045374144
219	0xbeb69637	-0.3566148
220	0xbea9dab4	-0.3317467
221	0xbf08e3ee	-0.53472793
222	0xbed98a4c	-0.42488325
223	0xbcf1ea0c	-0.029530548
224	0xbe301d75	-0.17198737
225	0xbe7ac88a	-0.24490562
226	0xbe499954	-0.19687396
227	0x3dc14e2c	0.09438738
228	0xbdd0325c	-0.10165855
229	0xbe45fc88	-0.19334614
230	0xbe064f09	-0.13116087
231	0x3f21d5a0	0.6321659
232	0xbefde6b2	-0.4959007
233	0xbece15e4	-0.40251076
234	0x3da0724e	0.07834302
235	0x3eac1bdc	0.33615005
236	0xbe160d25	-0.14653452
237	0x3e9a4e44	0.30137837
238	0xbe009d6f	-0.12560056
239	0x3e57584a	0.21029773
240	0x3e2ab982	0.16672328
241	0x3dc8e0d0	0.098085046
242	0xbd9afef5	-0.075681604
243	0xbc6b035b	-0.014344062
244	0xbdc5c630	-0.09656942
245	0xbea01e5b	-0.3127316
246	0xbe405b44	-0.18784815
247	0x3d2a73b2	0.041614242
248	0x3e915089	0.28381756
249	0xbe7511a8	-0.23932517
250	0xbea0ebc9	-0.3142989
251	0xbe27ce2c	-0.16387242
252	0xbe50ff00	-0.20409775
253	0xbe0142a7	-0.12623082
254	0x3e44d508	0.1922189
255	0x3c5fcd2c	0.013659757

seq.2.bias f4 [20]
0	0x3db5e57c	0.08881661
1	0x3d90a362	0.07062413
2	0x3e208805	0.15676887
3	0xbc3f2791	-0.011667148
4	0x3e98aaa8	0.298177
5	0xbdfd1674	-0.12357798
6	0xbfa3391e	-1.2751806
7	0x3e113758	0.14181268
8	0x3f87c494	1.0606866
9	0xbe4d358d	-0.20039959
10	0xbebec283	-0.37257776
11	0x3f2d82c7	0.67777675
12	0xbdbf303c	-0.09335372
13	0x3f1ba3ea	0.6079699
14	0x3ef6350e	0.48087353
15	0xbe004feb	-0.12530486
16	0x3f85fa03	1.0466923
17	0xbd91804b	-0.07104548
18	0x3e2b8574	0.16750127
19	0x3e3098b1	0.17245747

seq.4.weight f4 [20, 20]
0	0x3e34ae4f	0.17644618
1	0xbea07e23	-0.31346235
2	0xbe16ccb0	-0.1472652
3	0x3eb5e269	0.355243
4	0x3f005ea8	0.50144434
5	0xbedef9b6	-0.4354989
6	0xbf9de3ab	-1.2335104
7	0x3ebee009	0.372803
8	0x3f5047f8	0.81359816
9	0xbbd8bac8	-0.006614063
10	0xbe6afabc	-0.2294721
11	0xbf27fe7f	-0.65622705
12	0x3e1baaa8	0.15201819
13	0xbe91c0c3	-0.28467378
14	0xbeeb3efc	-0.4594649
15	0xbe8c7ebd	-0.27440444
16	0x3f3e10ef	0.7424459
17	0xbf4759a8	-0.7787118
18	0x3e8594fd	0.26090232
19	0xbf20da3d	-0.62833005
20	0xbc14ac3f	-0.00907427
21	0xbe0f366d	-0.13985606
22	0xbe099b7f	-0.13438223
23	0x3dbb4e17	0.09145754
24	0xbe2265e6	-0.15859184
25	0xbe57c22c	-0.21070164
26	0x3d6401ad	0.05566566
27	0xbd93b15a	-0.072115615
28	0xbdefea8a	-0.11714657
29	0xbd9bbdec	-0.07604584
30	0x3e4a31b2	0.1974552
31	0x3e303bc6	0.17210302
32	0x3e52baeb	0.20579116
33	0xbd8bf523	-0.068338655
34	0xbe5c832f	-0.21534418
35	0xbe2de88d	-0.16983242
36	0xbdb1cadf	-0.08681273
37	0x3e77f854	0.24215823
38	0x3e442e16	0.19158205
39	0x3db3aa09	0.08772666
40	0xbe9dee79	-0.30846003
41	0xbed45792	-0.4147306
42	0xbe80dad8	-0.25166965
43	0x3ee4ce62	0.44688708
44	0x3f11f21c	0.57010055
45	0xbe48c3ac	-0.19605893
46	0xbfc733ba	-1.5562661
47	0x3eae8b24	0.3409053
48	0x3ed5212c	0.4162687
49	0xbe5d9911	-0.21640421
50	0x3f194be1	0.5988141
51	0xbf0ef411	-0.55841166
52	0x3e82bc95	0.25534502
53	0xbf337580	-0.70101166
54	0xbf2d8d6f	-0.67793936
55	0xbe33b15b	-0.17548124
56	0x3ed1e742	0.40996748
57	0xbe9a58e5	-0.30145946
58	0x3e3be8cc	0.18350524
59	0xbe421ff5	-0.18957503
60	0x3cebc6a9	0.028781252
61	0xbd0bd5a3	-0.034139287
62	0x3d1c7e07	0.038206127
63	0x3e465b11	0.19370677
64	0xbde4f38d	-0.11179266
65	0xbd9c2359	-0.076239295
66	0x3e4a9061	0.19781639
67	0x3d48a407	0.048984554
68	0xbe40ac64	-0.18815762
69	0xbe2d6425	-0.16932733
70	0xbc84b144	-0.016197808
71	0x3d1ec060	0.03875768
72	0x3d14fb12	0.03637225
73	0xbd008137	-0.03137323
74	0x3df18d7f	0.11794566
75	0xbe4fc3b5	-0.202895
76	0xbd017a1d	-0.031610597
77	0xbe25e320	-0.16199923
78	0xbe612b55	-0.21989186
79	0xbc924066	-0.017852973
80	0xbe8a80ed	-0.27051488
81	0x3d782e5b	0.060591083
82	0x3dab8385	0.08374695
83	0xbec1193d	-0.37714568
84	0xbda773dc	-0.08176395
85	0xbdb46457	-0.08808201
86	0x3eecac3a	0.46225148
87	0xbd45c03e	-0.04827904
88	0x3e83ca6f	0.25740382
89	0x3e0323a2	0.12806562
90	0xbe669ac0	-0.2251997
91	0x3f00f60b	0.5037543
92	0xbdc7e162	-0.09759785
93	0x3f0d6ed9	0.55247265
94	0x3f0f5e7e	0.5600356
95	0x3e59051f	0.2119336
96	0xbe317486	-0.17329606
97	0x3ed31c97	0.4123275
98	0xbd0ec470	-0.034855306
99	0x3ea81c1d	0.3283395
100	0xbd8786ae	-0.06617485
101	0x3c349940	0.011022866
102	0xbd0203b4	-0.031741813
103	0x3e323dbb	0.17406361
104	0xbe651d48	-0.22374451
105	0x3e0c080a	0.13674942
106	0xbdc4523b	-0.09585997
107	0xbd4e41f1	-0.050355855
108	0xbd9a3b82	-0.075308815
109	0xbdb22f2a	-0.08700402
110	0xbd7a19c7	-0.06105974
111	0x3dbb9837	0.09159892
112	0x3de5627d	0.11200426
113	0xbccfc9d6	-0.025364798
114	0x3e363092	0.17791966
115	0x3e08e6c2	0.13369277
116	0xbe0f3989	-0.13986792
117	0x39609826	0.00021418984
118	0xbd6f8bd8	-0.058482975
119	0xbe326af4	-0.17423612
120	0x3e219ddb	0.15782873
121	0x3d9eb571	0.07749451
122	0x3e03d326	0.12873515
123	0x3c0b464b	0.008500646
124	0x3c25fa51	0.010130481
125	0x3e44d95e	0.19223544
126	0xbd2b4642	-0.04181505
127	0x3d9b83c1	0.075934894
128	0xbc71c1f2	-0.014755713
129	0xbcea4d9a	-0.028601456
130	0x3de5ad1a	0.11214657
131	0x3e151747	0.14559661
132	0x3e4e62a2	0.20154813
133	0x3de93d6b	0.11388668
134	0x3e1f72d3	0.15571146
135	0xbdb55ba4	-0.0885537
136	0xbc80f9f2	-0.015744183
137	0x3d9fc5ac	0.07801375
138	0x3e624cdd	0.22099634
139	0xbe5dde8e	-0.21666929
140	0xbe660194	-0.2246154
141	0xbc413927	-0.011793411
142	0xbd9b701e	-0.07589744
143	0xbda42dd0	-0.080165505
144	0x3df08f34	0.11746064
145	0xbd6226be	-0.05521273
146	0x3e1c1956	0.1524404
147	0x3c5feecb	0.0136677725
148	0xbddc4dcd	-0.10757027
149	0xbde3b943	-0.1111932
150	0xbd9b9cbc	-0.07598254
151	0x3dd24e5c	0.10268852
152	0xbe4e0095	-0.2011741
153	0x3dc950c3	0.09829857
154	0xbd12250c	-0.035679862
155	0x3d7ab709	0.061209712
156	0xbd85c887	-0.06532388
157	0xbd51a3f5	-0.051181752
158	0xbda0892d	-0.07838664
159	0xbe321e6c	-0.17394418
160	0xbdfb9f2e	-0.122862205
161	0xbdfcd731	-0.12345732
162	0xbe8f6ecb	-0.28014216
163	0xbdc0ff41	-0.09423686
164	0x3ac5db5e	0.0015095284
165	0xbdf573aa	-0.11984952
166	0x3d1f4677	0.03888556
167	0x3dddc59b	0.10828706
168	0x3dd046d7	0.10169762
169	0x3c5eea96	0.013605734
170	0xbd428b63	-0.04749621
171	0x3e35da67	0.17759095
172	0x3dd57255	0.10422198
173	0x3de9e1a9	0.114199944
174	0xbd90b6c6	-0.07066111
175	0xbe33b50b	-0.17549531
176	0x3e1844a7	0.14869939
177	0x3d834cb8	0.06411117
178	0xbd5b1513	-0.053486895
179	0xbe8c675a	-0.274226
180	0x3f32dcfd	0.6986845
181	0x3e2e80d4	0.17041332
182	0xbf6e7b08	-0.9315648
183	0x3e95b175	0.2923695
184	0x3d877739	0.06614537
185	0x3f667b58	0.9003196
186	0xbda85ebf	-0.082211964
187	0x3e674b20	0.22587252
188	0x3f24b37d	0.6433638
189	0x3bec47c0	0.0072107017
190	0x3dcbc94d	0.099505045
191	0xbea5a51b	-0.32352528
192	0xbdee58a7	-0.11638003
193	0x3f0b7690	0.54477787
194	0xbd4cb8e7	-0.049981024
195	0xbe37ec98	-0.17961347
196	0x3eef2908	0.46710992
197	0xbd82da17	-0.063892536
198	0x3edc3513	0.43009242
199	0xbf2d52a3	-0.6770422
200	0x3e5b1750	0.21395612
201	0xbcdac155	-0.026703516
202	0x3f02d66f	0.5110845
203	0x3ba21fbb	0.00494763
204	0x3d05b471	0.032642785
205	0xbf048683	-0.5176775
206	0xbe54333b	-0.20722668
207	0x3dac983b	0.08427473
208	0x3e8b8820	0.27252293
209	0xbefe14ee	-0.49625343
210	0xbeb4069d	-0.35161296
211	0xbde5cbdc	-0.11220524
212	0xbcef7f05	-0.029235372
213	0x3e7be3a6	0.2459856
214	0xbea3694d	-0.31916276
215	0xbc343726	-0.010999477
216	0x3f3b6602	0.73202527
217	0xbe76ac94	-0.24089271
218	0x3e3724ec	0.17885178
219	0x3ead42ee	0.33840126
220	0xbe216571	-0.15761353
221	0xbe06f75f	-0.13180302
222	0x3ea6c70c	0.32573736
223	0xbd8531f3	-0.06503668
224	0x3dac48f8	0.08412355
225	0x3d181a21	0.037134293
226	0xbd4beec9	-0.04978827
227	0xbe03c487	-0.12867938
228	0xbe4eae05	-0.2018357
229	0xbd885326	-0.06656484
230	0xbe174ed2	-0.14776161
231	0x3e3f079b	0.18655245
232	0x3c857fac	0.01629623
233	0xbe557362	-0.20844796
234	0x3e828800	0.25494385
235	0xbe3c0d2e	-0.18364403
236	0xbe05ef66	-0.13079605
237	0x3e1312c0	0.14362621
238	0xbe22a39b	-0.15882723
239	0x3e0ed091	0.1394675
240	0x3dbf5049	0.09341485
241	0x3ddba974	0.1072568
242	0xbdea460c	-0.11439142
243	0xbdb331f3	-0.087497614
244	0x3d49bcdc	0.049252376
245	0x3e1a6a01	0.150795
246	0x3e5fe21a	0.21863595
247	0x3e0053e6	0.12532005
248	0xbdd88f68	-0.105742276
249	0xbdd0d12e	-0.10196148
250	0xbdd1181f	-0.10209679
251	0xbc98421a	-0.018586207
252	0x3d370bdc	0.044689044
253	0xbe438365	-0.19093092
254	0xbe457544	-0.19283015
255	0xbdb4d89b	-0.08830377

seq.4.bias f4 [20]
0	0x3df5cad2	0.120015755
1	0xbdf9ecec	-0.122033924
2	0x3ef6c2b2	0.48195416
3	0xbccdb090	-0.025108606
4	0x3e9dcc02	0.30819708
5	0x3dc891c2	0.09793426
6	0xbe855a07	-0.26045248
7	0x3e2c4760	0.16824102
8	0xbe25492c	-0.16141194
9	0x3e0055ba	0.12532702
10	0x3f1fed15	0.62471133
11	0x3cd4e9f6	0.025990468
12	0xbd1c554c	-0.038167283
13	0xbd199a48	-0.03750065
14	0x3f58cec9	0.8469053
15	0xbe9f1c48	-0.31076264
16	0x3e9de8d1	0.30841687
17	0x3f3fae7f	0.74875635
18	0x3e3572a0	0.17719507
19	0x3cd66347	0.026170386

seq.6.weight f4 [2, 20]
0	0xc00d80a6	-2.210977
1	0xbe95ed41	-0.29282573
2	0xc0133b4c	-2.3004942
3	0x3e44d86d	0.19223185
4	0x3f8e120a	1.1099255
5	0xbdd1c09e	-0.10241817
6	0xbcb1ade3	-0.021689361
7	0x3d7d505c	0.061844215
8	0xbe97a8b1	-0.2962089
9	0xbe2a5dd1	-0.1663735
10	0xbf1011af	-0.56276983
11	0x3e03f42b	0.12886111
12	0xbd09e492	-0.033665247
13	0xbe00ff56	-0.12597403
14	0xbd2df5c7	-0.04247072
15	0xbfbf418c	-1.4941878
16	0x3ef369dd	0.47541705
17	0x402550aa	2.5830483
18	0x3e3f4caa	0.18681589
19	0xbed2009a	-0.41016084
20	0xbeaf95f4	-0.34294093
21	0xbe23960c	-0.15975207
22	0x3e0c0e2e	0.13677284
23	0x3e491024	0.19635063
24	0x3f08c030	0.53418255
25	0x3dd89ba8	0.10576564
26	0xbe3c7d0b	-0.18407075
27	0x3e35267b	0.1769046
28	0x3e0dcce5	0.13847692
29	0xbffaaa69	-1.9583255
30	0x3faa45af	1.3302516
31	0xbe8a36db	-0.26994976
32	0xbe3b3e45	-0.18285473
33	0xbf173da8	-0.59078455
34	0x3fb8f5ab	1.4449972
35	0x3cc3ecdf	0.02391666
36	0xbeb5a91d	-0.35480586
37	0x3e740cfb	0.23833077
38	0x3eee2792	0.46514565
39	0x3ef2f5ca	0.47453147

seq.6.bias f4 [2]
0	0x3e5e9ba1	0.21739055
1	0x3ef81483	0.4845315
